…
I0130 18:01:14.330366 30577 net.cpp:39] Initializing net from parameters: 
name: "vgg-jet0-denoise"
layers {
  top: "data"
  name: "data"
  type: DATA
  data_param {
    source: "/home/shelhamer/dpb/data/bsd500/bsd500-train-multi-lmdb"
    batch_size: 1
    backend: LMDB
  }
  include {
    phase: TRAIN
  }
  transform_param {
    mean_value: 109.9
    mean_value: 112.2
    mean_value: 93.8
  }
}
layers {
  top: "label"
  name: "label"
  type: DATA
  data_param {
    source: "/home/shelhamer/dpb/data/bsd500/bsd500-train-gt-denoise-lmdb"
    batch_size: 1
    backend: LMDB
  }
  include {
    phase: TRAIN
  }
}
layers {
  bottom: "data"
  top: "conv1_1"
  name: "conv1_1"
  type: CONVOLUTION
  blobs_lr: 0
  blobs_lr: 0
  weight_decay: 1
  weight_decay: 0
  convolution_param {
    num_output: 64
    pad: 1
    kernel_size: 3
    engine: CAFFE
  }
}
layers {
  bottom: "conv1_1"
  top: "conv1_1"
  name: "relu1_1"
  type: RELU
}
layers {
  bottom: "conv1_1"
  top: "conv1_2"
  name: "conv1_2"
  type: CONVOLUTION
  blobs_lr: 0
  blobs_lr: 0
  weight_decay: 1
  weight_decay: 0
  convolution_param {
    num_output: 64
    pad: 1
    kernel_size: 3
    engine: CAFFE
  }
}
layers {
  bottom: "conv1_2"
  top: "conv1_2"
  name: "relu1_2"
  type: RELU
}
layers {
  bottom: "conv1_2"
  top: "pool1"
  name: "pool1"
  type: POOLING
  pooling_param {
    pool: MAX
    kernel_size: 2
    stride: 2
  }
}
layers {
  bottom: "pool1"
  top: "conv2_1"
  name: "conv2_1"
  type: CONVOLUTION
  blobs_lr: 0
  blobs_lr: 0
  weight_decay: 1
  weight_decay: 0
  convolution_param {
    num_output: 128
    pad: 1
    kernel_size: 3
    engine: CAFFE
  }
}
layers {
  bottom: "conv2_1"
  top: "conv2_1"
  name: "relu2_1"
  type: RELU
}
layers {
  bottom: "conv2_1"
  top: "conv2_2"
  name: "conv2_2"
  type: CONVOLUTION
  blobs_lr: 0
  blobs_lr: 0
  weight_decay: 1
  weight_decay: 0
  convolution_param {
    num_output: 128
    pad: 1
    kernel_size: 3
    engine: CAFFE
  }
}
layers {
  bottom: "conv2_2"
  top: "conv2_2"
  name: "relu2_2"
  type: RELU
}
layers {
  bottom: "conv2_2"
  top: "pool2"
  name: "pool2"
  type: POOLING
  pooling_param {
    pool: MAX
    kernel_size: 2
    stride: 2
  }
}
layers {
  bottom: "pool2"
  top: "conv3_1"
  name: "conv3_1"
  type: CONVOLUTION
  blobs_lr: 0
  blobs_lr: 0
  weight_decay: 1
  weight_decay: 0
  convolution_param {
    num_output: 256
    pad: 1
    kernel_size: 3
    engine: CAFFE
  }
}
layers {
  bottom: "conv3_1"
  top: "conv3_1"
  name: "relu3_1"
  type: RELU
}
layers {
  bottom: "conv3_1"
  top: "conv3_2"
  name: "conv3_2"
  type: CONVOLUTION
  blobs_lr: 0
  blobs_lr: 0
  weight_decay: 1
  weight_decay: 0
  convolution_param {
    num_output: 256
    pad: 1
    kernel_size: 3
    engine: CAFFE
  }
}
layers {
  bottom: "conv3_2"
  top: "conv3_3"
  name: "conv3_3"
  type: CONVOLUTION
  blobs_lr: 0
  blobs_lr: 0
  weight_decay: 1
  weight_decay: 0
  convolution_param {
    num_output: 256
    pad: 1
    kernel_size: 3
    engine: CAFFE
  }
}
layers {
  bottom: "conv3_3"
  top: "conv3_3"
  name: "relu3_3"
  type: RELU
}
layers {
  bottom: "conv3_1"
  top: "score-conv3_1"
  name: "score-conv3_1"
  type: CONVOLUTION
  blobs_lr: 1
  blobs_lr: 2
  weight_decay: 1
  weight_decay: 0
  convolution_param {
    num_output: 2
    kernel_size: 1
    engine: CAFFE
  }
}
layers {
  bottom: "conv3_2"
  top: "score-conv3_2"
  name: "score-conv3_2"
  type: CONVOLUTION
  blobs_lr: 1
  blobs_lr: 2
  weight_decay: 1
  weight_decay: 0
  convolution_param {
    num_output: 2
    kernel_size: 1
    engine: CAFFE
  }
}
layers {
  bottom: "conv3_3"
  top: "score-conv3_3"
  name: "score-conv3_3"
  type: CONVOLUTION
  blobs_lr: 1
  blobs_lr: 2
  weight_decay: 1
  weight_decay: 0
  convolution_param {
    num_output: 2
    kernel_size: 1
    engine: CAFFE
  }
}
layers {
  bottom: "score-conv3_1"
  bottom: "score-conv3_2"
  bottom: "score-conv3_3"
  top: "score-conv3"
  name: "fuse-conv3"
  type: ELTWISE
  eltwise_param {
    operation: SUM
  }
}
layers {
  bottom: "score-conv3"
  top: "upscore-conv3"
  name: "upscore-conv3"
  type: DECONVOLUTION
  blobs_lr: 0
  blobs_lr: 0
  convolution_param {
    num_output: 2
    kernel_size: 4
    stride: 2
  }
}
layers {
  bottom: "upscore-conv3"
  bottom: "pool1"
  top: "upscore-conv3c"
  name: "crop-upscore-conv3"
  type: CROP
}
layers {
  bottom: "conv2_1"
  top: "score-conv2_1"
  name: "score-conv2_1"
  type: CONVOLUTION
  blobs_lr: 1
  blobs_lr: 2
  weight_decay: 1
  weight_decay: 0
  convolution_param {
    num_output: 2
    kernel_size: 1
    engine: CAFFE
  }
}
layers {
  bottom: "conv2_2"
  top: "score-conv2_2"
  name: "score-conv2_2"
  type: CONVOLUTION
  blobs_lr: 1
  blobs_lr: 2
  weight_decay: 1
  weight_decay: 0
  convolution_param {
    num_output: 2
    kernel_size: 1
    engine: CAFFE
  }
}
layers {
  bottom: "score-conv2_1"
  bottom: "score-conv2_2"
  bottom: "upscore-conv3c"
  top: "score-conv2,3"
  name: "fuse-conv2,3"
  type: ELTWISE
  eltwise_param {
    operation: SUM
  }
}
layers {
  bottom: "score-conv2,3"
  top: "upscore-conv2,3"
  name: "upscore-conv2,3"
  type: DECONVOLUTION
  blobs_lr: 0
  blobs_lr: 0
  convolution_param {
    num_output: 2
    kernel_size: 4
    stride: 2
  }
}
layers {
  bottom: "upscore-conv2,3"
  bottom: "conv1_1"
  top: "upscore-conv2,3c"
  name: "crop-upscore-conv2,3"
  type: CROP
}
layers {
  bottom: "conv1_1"
  top: "score-conv1_1"
  name: "score-conv1_1"
  type: CONVOLUTION
  blobs_lr: 1
  blobs_lr: 2
  weight_decay: 1
  weight_decay: 0
  convolution_param {
    num_output: 2
    kernel_size: 1
    engine: CAFFE
  }
}
layers {
  bottom: "conv1_2"
  top: "score-conv1_2"
  name: "score-conv1_2"
  type: CONVOLUTION
  blobs_lr: 1
  blobs_lr: 2
  weight_decay: 1
  weight_decay: 0
  convolution_param {
    num_output: 2
    kernel_size: 1
    engine: CAFFE
  }
}
layers {
  bottom: "score-conv1_1"
  bottom: "score-conv1_2"
  bottom: "upscore-conv2,3c"
  top: "score"
  name: "fuse-conv1,2,3"
  type: ELTWISE
  eltwise_param {
    operation: SUM
  }
}
layers {
  bottom: "score"
  bottom: "label"
  top: "loss"
  name: "loss"
  type: SOFTMAX_LOSS
  loss_param {
    ignore_label: 255
    normalize: false
  }
}
state {
  phase: TRAIN
}
I0130 18:01:14.330677 30577 layer_factory.hpp:78] Creating layer data
I0130 18:01:14.330701 30577 net.cpp:69] Creating Layer data
I0130 18:01:14.330711 30577 net.cpp:358] data -> data
I0130 18:01:14.330734 30577 net.cpp:98] Setting up data
I0130 18:01:14.330749 30577 data_layer.cpp:34] Opening dataset /home/shelhamer/dpb/data/bsd500/bsd500-train-multi-lmdb
I0130 18:01:14.331357 30577 data_layer.cpp:73] output data size: 1,3,481,321
I0130 18:01:14.331934 30577 net.cpp:105] Top shape: 1 3 481 321 (463203)
I0130 18:01:14.331948 30577 layer_factory.hpp:78] Creating layer label
I0130 18:01:14.331975 30577 net.cpp:69] Creating Layer label
I0130 18:01:14.331987 30577 net.cpp:358] label -> label
I0130 18:01:14.332000 30577 net.cpp:98] Setting up label
I0130 18:01:14.332007 30577 data_layer.cpp:34] Opening dataset /home/shelhamer/dpb/data/bsd500/bsd500-train-gt-denoise-lmdb
I0130 18:01:14.332263 30577 data_layer.cpp:73] output data size: 1,1,481,321
I0130 18:01:14.332659 30577 net.cpp:105] Top shape: 1 1 481 321 (154401)
I0130 18:01:14.332670 30577 layer_factory.hpp:78] Creating layer conv1_1
I0130 18:01:14.332685 30577 net.cpp:69] Creating Layer conv1_1
I0130 18:01:14.332696 30577 net.cpp:396] conv1_1 <- data
I0130 18:01:14.332736 30577 net.cpp:358] conv1_1 -> conv1_1
I0130 18:01:14.332769 30577 net.cpp:98] Setting up conv1_1
I0130 18:01:14.333228 30577 net.cpp:105] Top shape: 1 64 481 321 (9881664)
I0130 18:01:14.333250 30577 layer_factory.hpp:78] Creating layer relu1_1
I0130 18:01:14.333262 30577 net.cpp:69] Creating Layer relu1_1
I0130 18:01:14.333269 30577 net.cpp:396] relu1_1 <- conv1_1
I0130 18:01:14.333278 30577 net.cpp:347] relu1_1 -> conv1_1 (in-place)
I0130 18:01:14.333292 30577 net.cpp:98] Setting up relu1_1
I0130 18:01:14.333300 30577 net.cpp:105] Top shape: 1 64 481 321 (9881664)
I0130 18:01:14.333307 30577 layer_factory.hpp:78] Creating layer conv1_1_relu1_1_0_split
I0130 18:01:14.333318 30577 net.cpp:69] Creating Layer conv1_1_relu1_1_0_split
I0130 18:01:14.333325 30577 net.cpp:396] conv1_1_relu1_1_0_split <- conv1_1
I0130 18:01:14.333335 30577 net.cpp:358] conv1_1_relu1_1_0_split -> conv1_1_relu1_1_0_split_0
I0130 18:01:14.333346 30577 net.cpp:358] conv1_1_relu1_1_0_split -> conv1_1_relu1_1_0_split_1
I0130 18:01:14.333359 30577 net.cpp:358] conv1_1_relu1_1_0_split -> conv1_1_relu1_1_0_split_2
I0130 18:01:14.333371 30577 net.cpp:98] Setting up conv1_1_relu1_1_0_split
I0130 18:01:14.333382 30577 net.cpp:105] Top shape: 1 64 481 321 (9881664)
I0130 18:01:14.333390 30577 net.cpp:105] Top shape: 1 64 481 321 (9881664)
I0130 18:01:14.333396 30577 net.cpp:105] Top shape: 1 64 481 321 (9881664)
I0130 18:01:14.333403 30577 layer_factory.hpp:78] Creating layer conv1_2
I0130 18:01:14.333413 30577 net.cpp:69] Creating Layer conv1_2
I0130 18:01:14.333421 30577 net.cpp:396] conv1_2 <- conv1_1_relu1_1_0_split_0
I0130 18:01:14.333431 30577 net.cpp:358] conv1_2 -> conv1_2
I0130 18:01:14.333441 30577 net.cpp:98] Setting up conv1_2
I0130 18:01:14.334023 30577 net.cpp:105] Top shape: 1 64 481 321 (9881664)
I0130 18:01:14.334070 30577 layer_factory.hpp:78] Creating layer relu1_2
I0130 18:01:14.334097 30577 net.cpp:69] Creating Layer relu1_2
I0130 18:01:14.334120 30577 net.cpp:396] relu1_2 <- conv1_2
I0130 18:01:14.334146 30577 net.cpp:347] relu1_2 -> conv1_2 (in-place)
I0130 18:01:14.334172 30577 net.cpp:98] Setting up relu1_2
I0130 18:01:14.334193 30577 net.cpp:105] Top shape: 1 64 481 321 (9881664)
I0130 18:01:14.334215 30577 layer_factory.hpp:78] Creating layer conv1_2_relu1_2_0_split
I0130 18:01:14.334239 30577 net.cpp:69] Creating Layer conv1_2_relu1_2_0_split
I0130 18:01:14.334261 30577 net.cpp:396] conv1_2_relu1_2_0_split <- conv1_2
I0130 18:01:14.334286 30577 net.cpp:358] conv1_2_relu1_2_0_split -> conv1_2_relu1_2_0_split_0
I0130 18:01:14.334313 30577 net.cpp:358] conv1_2_relu1_2_0_split -> conv1_2_relu1_2_0_split_1
I0130 18:01:14.334342 30577 net.cpp:98] Setting up conv1_2_relu1_2_0_split
I0130 18:01:14.334364 30577 net.cpp:105] Top shape: 1 64 481 321 (9881664)
I0130 18:01:14.334388 30577 net.cpp:105] Top shape: 1 64 481 321 (9881664)
I0130 18:01:14.334409 30577 layer_factory.hpp:78] Creating layer pool1
I0130 18:01:14.334435 30577 net.cpp:69] Creating Layer pool1
I0130 18:01:14.334457 30577 net.cpp:396] pool1 <- conv1_2_relu1_2_0_split_0
I0130 18:01:14.334483 30577 net.cpp:358] pool1 -> pool1
I0130 18:01:14.334508 30577 net.cpp:98] Setting up pool1
I0130 18:01:14.334537 30577 net.cpp:105] Top shape: 1 64 241 161 (2483264)
I0130 18:01:14.334560 30577 layer_factory.hpp:78] Creating layer pool1_pool1_0_split
I0130 18:01:14.334583 30577 net.cpp:69] Creating Layer pool1_pool1_0_split
I0130 18:01:14.334605 30577 net.cpp:396] pool1_pool1_0_split <- pool1
I0130 18:01:14.334630 30577 net.cpp:358] pool1_pool1_0_split -> pool1_pool1_0_split_0
I0130 18:01:14.334666 30577 net.cpp:358] pool1_pool1_0_split -> pool1_pool1_0_split_1
I0130 18:01:14.334692 30577 net.cpp:98] Setting up pool1_pool1_0_split
I0130 18:01:14.334715 30577 net.cpp:105] Top shape: 1 64 241 161 (2483264)
I0130 18:01:14.334738 30577 net.cpp:105] Top shape: 1 64 241 161 (2483264)
I0130 18:01:14.334759 30577 layer_factory.hpp:78] Creating layer conv2_1
I0130 18:01:14.334784 30577 net.cpp:69] Creating Layer conv2_1
I0130 18:01:14.334808 30577 net.cpp:396] conv2_1 <- pool1_pool1_0_split_0
I0130 18:01:14.334837 30577 net.cpp:358] conv2_1 -> conv2_1
I0130 18:01:14.334867 30577 net.cpp:98] Setting up conv2_1
I0130 18:01:14.335142 30577 net.cpp:105] Top shape: 1 128 241 161 (4966528)
I0130 18:01:14.335160 30577 layer_factory.hpp:78] Creating layer relu2_1
I0130 18:01:14.335168 30577 net.cpp:69] Creating Layer relu2_1
I0130 18:01:14.335175 30577 net.cpp:396] relu2_1 <- conv2_1
I0130 18:01:14.335185 30577 net.cpp:347] relu2_1 -> conv2_1 (in-place)
I0130 18:01:14.335196 30577 net.cpp:98] Setting up relu2_1
I0130 18:01:14.335222 30577 net.cpp:105] Top shape: 1 128 241 161 (4966528)
I0130 18:01:14.335244 30577 layer_factory.hpp:78] Creating layer conv2_1_relu2_1_0_split
I0130 18:01:14.335268 30577 net.cpp:69] Creating Layer conv2_1_relu2_1_0_split
I0130 18:01:14.335290 30577 net.cpp:396] conv2_1_relu2_1_0_split <- conv2_1
I0130 18:01:14.335315 30577 net.cpp:358] conv2_1_relu2_1_0_split -> conv2_1_relu2_1_0_split_0
I0130 18:01:14.335342 30577 net.cpp:358] conv2_1_relu2_1_0_split -> conv2_1_relu2_1_0_split_1
I0130 18:01:14.335368 30577 net.cpp:98] Setting up conv2_1_relu2_1_0_split
I0130 18:01:14.335391 30577 net.cpp:105] Top shape: 1 128 241 161 (4966528)
I0130 18:01:14.335412 30577 net.cpp:105] Top shape: 1 128 241 161 (4966528)
I0130 18:01:14.335433 30577 layer_factory.hpp:78] Creating layer conv2_2
I0130 18:01:14.335458 30577 net.cpp:69] Creating Layer conv2_2
I0130 18:01:14.335480 30577 net.cpp:396] conv2_2 <- conv2_1_relu2_1_0_split_0
I0130 18:01:14.335505 30577 net.cpp:358] conv2_2 -> conv2_2
I0130 18:01:14.335530 30577 net.cpp:98] Setting up conv2_2
I0130 18:01:14.335947 30577 net.cpp:105] Top shape: 1 128 241 161 (4966528)
I0130 18:01:14.335960 30577 layer_factory.hpp:78] Creating layer relu2_2
I0130 18:01:14.335969 30577 net.cpp:69] Creating Layer relu2_2
I0130 18:01:14.335975 30577 net.cpp:396] relu2_2 <- conv2_2
I0130 18:01:14.335984 30577 net.cpp:347] relu2_2 -> conv2_2 (in-place)
I0130 18:01:14.335994 30577 net.cpp:98] Setting up relu2_2
I0130 18:01:14.336001 30577 net.cpp:105] Top shape: 1 128 241 161 (4966528)
I0130 18:01:14.336009 30577 layer_factory.hpp:78] Creating layer conv2_2_relu2_2_0_split
I0130 18:01:14.336015 30577 net.cpp:69] Creating Layer conv2_2_relu2_2_0_split
I0130 18:01:14.336024 30577 net.cpp:396] conv2_2_relu2_2_0_split <- conv2_2
I0130 18:01:14.336032 30577 net.cpp:358] conv2_2_relu2_2_0_split -> conv2_2_relu2_2_0_split_0
I0130 18:01:14.336045 30577 net.cpp:358] conv2_2_relu2_2_0_split -> conv2_2_relu2_2_0_split_1
I0130 18:01:14.336056 30577 net.cpp:98] Setting up conv2_2_relu2_2_0_split
I0130 18:01:14.336065 30577 net.cpp:105] Top shape: 1 128 241 161 (4966528)
I0130 18:01:14.336072 30577 net.cpp:105] Top shape: 1 128 241 161 (4966528)
I0130 18:01:14.336079 30577 layer_factory.hpp:78] Creating layer pool2
I0130 18:01:14.336091 30577 net.cpp:69] Creating Layer pool2
I0130 18:01:14.336098 30577 net.cpp:396] pool2 <- conv2_2_relu2_2_0_split_0
I0130 18:01:14.336107 30577 net.cpp:358] pool2 -> pool2
I0130 18:01:14.336117 30577 net.cpp:98] Setting up pool2
I0130 18:01:14.336125 30577 net.cpp:105] Top shape: 1 128 121 81 (1254528)
I0130 18:01:14.336134 30577 layer_factory.hpp:78] Creating layer conv3_1
I0130 18:01:14.336143 30577 net.cpp:69] Creating Layer conv3_1
I0130 18:01:14.336149 30577 net.cpp:396] conv3_1 <- pool2
I0130 18:01:14.336158 30577 net.cpp:358] conv3_1 -> conv3_1
I0130 18:01:14.336169 30577 net.cpp:98] Setting up conv3_1
I0130 18:01:14.336796 30577 net.cpp:105] Top shape: 1 256 121 81 (2509056)
I0130 18:01:14.336819 30577 layer_factory.hpp:78] Creating layer relu3_1
I0130 18:01:14.336827 30577 net.cpp:69] Creating Layer relu3_1
I0130 18:01:14.336833 30577 net.cpp:396] relu3_1 <- conv3_1
I0130 18:01:14.336843 30577 net.cpp:347] relu3_1 -> conv3_1 (in-place)
I0130 18:01:14.336851 30577 net.cpp:98] Setting up relu3_1
I0130 18:01:14.336859 30577 net.cpp:105] Top shape: 1 256 121 81 (2509056)
I0130 18:01:14.336865 30577 layer_factory.hpp:78] Creating layer conv3_1_relu3_1_0_split
I0130 18:01:14.336873 30577 net.cpp:69] Creating Layer conv3_1_relu3_1_0_split
I0130 18:01:14.336879 30577 net.cpp:396] conv3_1_relu3_1_0_split <- conv3_1
I0130 18:01:14.336886 30577 net.cpp:358] conv3_1_relu3_1_0_split -> conv3_1_relu3_1_0_split_0
I0130 18:01:14.336899 30577 net.cpp:358] conv3_1_relu3_1_0_split -> conv3_1_relu3_1_0_split_1
I0130 18:01:14.336910 30577 net.cpp:98] Setting up conv3_1_relu3_1_0_split
I0130 18:01:14.336917 30577 net.cpp:105] Top shape: 1 256 121 81 (2509056)
I0130 18:01:14.336925 30577 net.cpp:105] Top shape: 1 256 121 81 (2509056)
I0130 18:01:14.336931 30577 layer_factory.hpp:78] Creating layer conv3_2
I0130 18:01:14.336941 30577 net.cpp:69] Creating Layer conv3_2
I0130 18:01:14.336948 30577 net.cpp:396] conv3_2 <- conv3_1_relu3_1_0_split_0
I0130 18:01:14.336957 30577 net.cpp:358] conv3_2 -> conv3_2
I0130 18:01:14.336967 30577 net.cpp:98] Setting up conv3_2
I0130 18:01:14.338186 30577 net.cpp:105] Top shape: 1 256 121 81 (2509056)
I0130 18:01:14.338210 30577 layer_factory.hpp:78] Creating layer conv3_2_conv3_2_0_split
I0130 18:01:14.338218 30577 net.cpp:69] Creating Layer conv3_2_conv3_2_0_split
I0130 18:01:14.338225 30577 net.cpp:396] conv3_2_conv3_2_0_split <- conv3_2
I0130 18:01:14.338234 30577 net.cpp:358] conv3_2_conv3_2_0_split -> conv3_2_conv3_2_0_split_0
I0130 18:01:14.338246 30577 net.cpp:358] conv3_2_conv3_2_0_split -> conv3_2_conv3_2_0_split_1
I0130 18:01:14.338258 30577 net.cpp:98] Setting up conv3_2_conv3_2_0_split
I0130 18:01:14.338266 30577 net.cpp:105] Top shape: 1 256 121 81 (2509056)
I0130 18:01:14.338274 30577 net.cpp:105] Top shape: 1 256 121 81 (2509056)
I0130 18:01:14.338279 30577 layer_factory.hpp:78] Creating layer conv3_3
I0130 18:01:14.338287 30577 net.cpp:69] Creating Layer conv3_3
I0130 18:01:14.338295 30577 net.cpp:396] conv3_3 <- conv3_2_conv3_2_0_split_0
I0130 18:01:14.338304 30577 net.cpp:358] conv3_3 -> conv3_3
I0130 18:01:14.338315 30577 net.cpp:98] Setting up conv3_3
I0130 18:01:14.339511 30577 net.cpp:105] Top shape: 1 256 121 81 (2509056)
I0130 18:01:14.339535 30577 layer_factory.hpp:78] Creating layer relu3_3
I0130 18:01:14.339543 30577 net.cpp:69] Creating Layer relu3_3
I0130 18:01:14.339550 30577 net.cpp:396] relu3_3 <- conv3_3
I0130 18:01:14.339560 30577 net.cpp:347] relu3_3 -> conv3_3 (in-place)
I0130 18:01:14.339570 30577 net.cpp:98] Setting up relu3_3
I0130 18:01:14.339576 30577 net.cpp:105] Top shape: 1 256 121 81 (2509056)
I0130 18:01:14.339582 30577 layer_factory.hpp:78] Creating layer score-conv3_1
I0130 18:01:14.339591 30577 net.cpp:69] Creating Layer score-conv3_1
I0130 18:01:14.339598 30577 net.cpp:396] score-conv3_1 <- conv3_1_relu3_1_0_split_1
I0130 18:01:14.339607 30577 net.cpp:358] score-conv3_1 -> score-conv3_1
I0130 18:01:14.339617 30577 net.cpp:98] Setting up score-conv3_1
I0130 18:01:14.339651 30577 net.cpp:105] Top shape: 1 2 121 81 (19602)
I0130 18:01:14.339663 30577 layer_factory.hpp:78] Creating layer score-conv3_2
I0130 18:01:14.339673 30577 net.cpp:69] Creating Layer score-conv3_2
I0130 18:01:14.339680 30577 net.cpp:396] score-conv3_2 <- conv3_2_conv3_2_0_split_1
I0130 18:01:14.339689 30577 net.cpp:358] score-conv3_2 -> score-conv3_2
I0130 18:01:14.339699 30577 net.cpp:98] Setting up score-conv3_2
I0130 18:01:14.339736 30577 net.cpp:105] Top shape: 1 2 121 81 (19602)
I0130 18:01:14.339751 30577 layer_factory.hpp:78] Creating layer score-conv3_3
I0130 18:01:14.339761 30577 net.cpp:69] Creating Layer score-conv3_3
I0130 18:01:14.339769 30577 net.cpp:396] score-conv3_3 <- conv3_3
I0130 18:01:14.339778 30577 net.cpp:358] score-conv3_3 -> score-conv3_3
I0130 18:01:14.339789 30577 net.cpp:98] Setting up score-conv3_3
I0130 18:01:14.339824 30577 net.cpp:105] Top shape: 1 2 121 81 (19602)
I0130 18:01:14.339835 30577 layer_factory.hpp:78] Creating layer fuse-conv3
I0130 18:01:14.339849 30577 net.cpp:69] Creating Layer fuse-conv3
I0130 18:01:14.339856 30577 net.cpp:396] fuse-conv3 <- score-conv3_1
I0130 18:01:14.339864 30577 net.cpp:396] fuse-conv3 <- score-conv3_2
I0130 18:01:14.339872 30577 net.cpp:396] fuse-conv3 <- score-conv3_3
I0130 18:01:14.339882 30577 net.cpp:358] fuse-conv3 -> score-conv3
I0130 18:01:14.339893 30577 net.cpp:98] Setting up fuse-conv3
I0130 18:01:14.339905 30577 net.cpp:105] Top shape: 1 2 121 81 (19602)
I0130 18:01:14.339911 30577 layer_factory.hpp:78] Creating layer upscore-conv3
I0130 18:01:14.339922 30577 net.cpp:69] Creating Layer upscore-conv3
I0130 18:01:14.339929 30577 net.cpp:396] upscore-conv3 <- score-conv3
I0130 18:01:14.339938 30577 net.cpp:358] upscore-conv3 -> upscore-conv3
I0130 18:01:14.339948 30577 net.cpp:98] Setting up upscore-conv3
I0130 18:01:14.340044 30577 net.cpp:105] Top shape: 1 2 244 164 (80032)
I0130 18:01:14.340056 30577 layer_factory.hpp:78] Creating layer crop-upscore-conv3
I0130 18:01:14.340068 30577 net.cpp:69] Creating Layer crop-upscore-conv3
I0130 18:01:14.340076 30577 net.cpp:396] crop-upscore-conv3 <- upscore-conv3
I0130 18:01:14.340085 30577 net.cpp:396] crop-upscore-conv3 <- pool1_pool1_0_split_1
I0130 18:01:14.340096 30577 net.cpp:358] crop-upscore-conv3 -> upscore-conv3c
I0130 18:01:14.340106 30577 net.cpp:98] Setting up crop-upscore-conv3
I0130 18:01:14.340164 30577 net.cpp:105] Top shape: 1 2 241 161 (77602)
I0130 18:01:14.340173 30577 layer_factory.hpp:78] Creating layer score-conv2_1
I0130 18:01:14.340180 30577 net.cpp:69] Creating Layer score-conv2_1
I0130 18:01:14.340188 30577 net.cpp:396] score-conv2_1 <- conv2_1_relu2_1_0_split_1
I0130 18:01:14.340198 30577 net.cpp:358] score-conv2_1 -> score-conv2_1
I0130 18:01:14.340211 30577 net.cpp:98] Setting up score-conv2_1
I0130 18:01:14.340306 30577 net.cpp:105] Top shape: 1 2 241 161 (77602)
I0130 18:01:14.340318 30577 layer_factory.hpp:78] Creating layer score-conv2_2
I0130 18:01:14.340329 30577 net.cpp:69] Creating Layer score-conv2_2
I0130 18:01:14.340337 30577 net.cpp:396] score-conv2_2 <- conv2_2_relu2_2_0_split_1
I0130 18:01:14.340348 30577 net.cpp:358] score-conv2_2 -> score-conv2_2
I0130 18:01:14.340358 30577 net.cpp:98] Setting up score-conv2_2
I0130 18:01:14.340454 30577 net.cpp:105] Top shape: 1 2 241 161 (77602)
I0130 18:01:14.340467 30577 layer_factory.hpp:78] Creating layer fuse-conv2,3
I0130 18:01:14.340482 30577 net.cpp:69] Creating Layer fuse-conv2,3
I0130 18:01:14.340490 30577 net.cpp:396] fuse-conv2,3 <- score-conv2_1
I0130 18:01:14.340498 30577 net.cpp:396] fuse-conv2,3 <- score-conv2_2
I0130 18:01:14.340507 30577 net.cpp:396] fuse-conv2,3 <- upscore-conv3c
I0130 18:01:14.340520 30577 net.cpp:358] fuse-conv2,3 -> score-conv2,3
I0130 18:01:14.340530 30577 net.cpp:98] Setting up fuse-conv2,3
I0130 18:01:14.340539 30577 net.cpp:105] Top shape: 1 2 241 161 (77602)
I0130 18:01:14.340546 30577 layer_factory.hpp:78] Creating layer upscore-conv2,3
I0130 18:01:14.340554 30577 net.cpp:69] Creating Layer upscore-conv2,3
I0130 18:01:14.340561 30577 net.cpp:396] upscore-conv2,3 <- score-conv2,3
I0130 18:01:14.340570 30577 net.cpp:358] upscore-conv2,3 -> upscore-conv2,3
I0130 18:01:14.340580 30577 net.cpp:98] Setting up upscore-conv2,3
I0130 18:01:14.340905 30577 net.cpp:105] Top shape: 1 2 484 324 (313632)
I0130 18:01:14.340919 30577 layer_factory.hpp:78] Creating layer crop-upscore-conv2,3
I0130 18:01:14.340929 30577 net.cpp:69] Creating Layer crop-upscore-conv2,3
I0130 18:01:14.340935 30577 net.cpp:396] crop-upscore-conv2,3 <- upscore-conv2,3
I0130 18:01:14.340942 30577 net.cpp:396] crop-upscore-conv2,3 <- conv1_1_relu1_1_0_split_1
I0130 18:01:14.340951 30577 net.cpp:358] crop-upscore-conv2,3 -> upscore-conv2,3c
I0130 18:01:14.340960 30577 net.cpp:98] Setting up crop-upscore-conv2,3
I0130 18:01:14.341004 30577 net.cpp:105] Top shape: 1 2 481 321 (308802)
I0130 18:01:14.341012 30577 layer_factory.hpp:78] Creating layer score-conv1_1
I0130 18:01:14.341020 30577 net.cpp:69] Creating Layer score-conv1_1
I0130 18:01:14.341027 30577 net.cpp:396] score-conv1_1 <- conv1_1_relu1_1_0_split_2
I0130 18:01:14.341035 30577 net.cpp:358] score-conv1_1 -> score-conv1_1
I0130 18:01:14.341044 30577 net.cpp:98] Setting up score-conv1_1
I0130 18:01:14.341367 30577 net.cpp:105] Top shape: 1 2 481 321 (308802)
I0130 18:01:14.341380 30577 layer_factory.hpp:78] Creating layer score-conv1_2
I0130 18:01:14.341390 30577 net.cpp:69] Creating Layer score-conv1_2
I0130 18:01:14.341398 30577 net.cpp:396] score-conv1_2 <- conv1_2_relu1_2_0_split_1
I0130 18:01:14.341406 30577 net.cpp:358] score-conv1_2 -> score-conv1_2
I0130 18:01:14.341415 30577 net.cpp:98] Setting up score-conv1_2
I0130 18:01:14.341794 30577 net.cpp:105] Top shape: 1 2 481 321 (308802)
I0130 18:01:14.341809 30577 layer_factory.hpp:78] Creating layer fuse-conv1,2,3
I0130 18:01:14.341817 30577 net.cpp:69] Creating Layer fuse-conv1,2,3
I0130 18:01:14.341824 30577 net.cpp:396] fuse-conv1,2,3 <- score-conv1_1
I0130 18:01:14.341833 30577 net.cpp:396] fuse-conv1,2,3 <- score-conv1_2
I0130 18:01:14.341840 30577 net.cpp:396] fuse-conv1,2,3 <- upscore-conv2,3c
I0130 18:01:14.341850 30577 net.cpp:358] fuse-conv1,2,3 -> score
I0130 18:01:14.341858 30577 net.cpp:98] Setting up fuse-conv1,2,3
I0130 18:01:14.341866 30577 net.cpp:105] Top shape: 1 2 481 321 (308802)
I0130 18:01:14.341872 30577 layer_factory.hpp:78] Creating layer loss
I0130 18:01:14.341888 30577 net.cpp:69] Creating Layer loss
I0130 18:01:14.341897 30577 net.cpp:396] loss <- score
I0130 18:01:14.341905 30577 net.cpp:396] loss <- label
I0130 18:01:14.341913 30577 net.cpp:358] loss -> loss
I0130 18:01:14.341925 30577 net.cpp:98] Setting up loss
I0130 18:01:14.341935 30577 layer_factory.hpp:78] Creating layer loss
I0130 18:01:14.342692 30577 net.cpp:105] Top shape: 1 1 1 1 (1)
I0130 18:01:14.342702 30577 net.cpp:111]     with loss weight 1
I0130 18:01:14.342720 30577 net.cpp:172] loss needs backward computation.
I0130 18:01:14.342726 30577 net.cpp:172] fuse-conv1,2,3 needs backward computation.
I0130 18:01:14.342733 30577 net.cpp:172] score-conv1_2 needs backward computation.
I0130 18:01:14.342738 30577 net.cpp:172] score-conv1_1 needs backward computation.
I0130 18:01:14.342744 30577 net.cpp:172] crop-upscore-conv2,3 needs backward computation.
…
I0130 18:01:14.344662 30577 net.cpp:39] Initializing net from parameters: 
name: "vgg-jet0-denoise"
layers {
  top: "data"
  name: "data"
  type: DATA
  data_param {
    source: "/home/shelhamer/dpb/data/bsd500/bsd500-val-lmdb"
    batch_size: 1
    backend: LMDB
  }
  include {
    phase: TEST
  }
  transform_param {
    mean_value: 109.9
    mean_value: 112.2
    mean_value: 93.8
  }
}
layers {
  top: "label"
  name: "label"
  type: DATA
  data_param {
    source: "/home/shelhamer/dpb/data/bsd500/bsd500-val-gt-union-lmdb"
    batch_size: 1
    backend: LMDB
  }
  include {
    phase: TEST
  }
}
layers {
  bottom: "data"
  top: "conv1_1"
  name: "conv1_1"
  type: CONVOLUTION
  blobs_lr: 0
  blobs_lr: 0
  weight_decay: 1
  weight_decay: 0
  convolution_param {
    num_output: 64
    pad: 1
    kernel_size: 3
    engine: CAFFE
  }
}
layers {
  bottom: "conv1_1"
  top: "conv1_1"
  name: "relu1_1"
  type: RELU
}
layers {
  bottom: "conv1_1"
  top: "conv1_2"
  name: "conv1_2"
  type: CONVOLUTION
  blobs_lr: 0
  blobs_lr: 0
  weight_decay: 1
  weight_decay: 0
  convolution_param {
    num_output: 64
    pad: 1
    kernel_size: 3
    engine: CAFFE
  }
}
layers {
  bottom: "conv1_2"
  top: "conv1_2"
  name: "relu1_2"
  type: RELU
}
layers {
  bottom: "conv1_2"
  top: "pool1"
  name: "pool1"
  type: POOLING
  pooling_param {
    pool: MAX
    kernel_size: 2
    stride: 2
  }
}
layers {
  bottom: "pool1"
  top: "conv2_1"
  name: "conv2_1"
  type: CONVOLUTION
  blobs_lr: 0
  blobs_lr: 0
  weight_decay: 1
  weight_decay: 0
  convolution_param {
    num_output: 128
    pad: 1
    kernel_size: 3
    engine: CAFFE
  }
}
layers {
  bottom: "conv2_1"
  top: "conv2_1"
  name: "relu2_1"
  type: RELU
}
layers {
  bottom: "conv2_1"
  top: "conv2_2"
  name: "conv2_2"
  type: CONVOLUTION
  blobs_lr: 0
  blobs_lr: 0
  weight_decay: 1
  weight_decay: 0
  convolution_param {
    num_output: 128
    pad: 1
    kernel_size: 3
    engine: CAFFE
  }
}
layers {
  bottom: "conv2_2"
  top: "conv2_2"
  name: "relu2_2"
  type: RELU
}
layers {
  bottom: "conv2_2"
  top: "pool2"
  name: "pool2"
  type: POOLING
  pooling_param {
    pool: MAX
    kernel_size: 2
    stride: 2
  }
}
layers {
  bottom: "pool2"
  top: "conv3_1"
  name: "conv3_1"
  type: CONVOLUTION
  blobs_lr: 0
  blobs_lr: 0
  weight_decay: 1
  weight_decay: 0
  convolution_param {
    num_output: 256
    pad: 1
    kernel_size: 3
    engine: CAFFE
  }
}
layers {
  bottom: "conv3_1"
  top: "conv3_1"
  name: "relu3_1"
  type: RELU
}
layers {
  bottom: "conv3_1"
  top: "conv3_2"
  name: "conv3_2"
  type: CONVOLUTION
  blobs_lr: 0
  blobs_lr: 0
  weight_decay: 1
  weight_decay: 0
  convolution_param {
    num_output: 256
    pad: 1
    kernel_size: 3
    engine: CAFFE
  }
}
layers {
  bottom: "conv3_2"
  top: "conv3_3"
  name: "conv3_3"
  type: CONVOLUTION
  blobs_lr: 0
  blobs_lr: 0
  weight_decay: 1
  weight_decay: 0
  convolution_param {
    num_output: 256
    pad: 1
    kernel_size: 3
    engine: CAFFE
  }
}
layers {
  bottom: "conv3_3"
  top: "conv3_3"
  name: "relu3_3"
  type: RELU
}
layers {
  bottom: "conv3_1"
  top: "score-conv3_1"
  name: "score-conv3_1"
  type: CONVOLUTION
  blobs_lr: 1
  blobs_lr: 2
  weight_decay: 1
  weight_decay: 0
  convolution_param {
    num_output: 2
    kernel_size: 1
    engine: CAFFE
  }
}
layers {
  bottom: "conv3_2"
  top: "score-conv3_2"
  name: "score-conv3_2"
  type: CONVOLUTION
  blobs_lr: 1
  blobs_lr: 2
  weight_decay: 1
  weight_decay: 0
  convolution_param {
    num_output: 2
    kernel_size: 1
    engine: CAFFE
  }
}
layers {
  bottom: "conv3_3"
  top: "score-conv3_3"
  name: "score-conv3_3"
  type: CONVOLUTION
  blobs_lr: 1
  blobs_lr: 2
  weight_decay: 1
  weight_decay: 0
  convolution_param {
    num_output: 2
    kernel_size: 1
    engine: CAFFE
  }
}
layers {
  bottom: "score-conv3_1"
  bottom: "score-conv3_2"
  bottom: "score-conv3_3"
  top: "score-conv3"
  name: "fuse-conv3"
  type: ELTWISE
  eltwise_param {
    operation: SUM
  }
}
layers {
  bottom: "score-conv3"
  top: "upscore-conv3"
  name: "upscore-conv3"
  type: DECONVOLUTION
  blobs_lr: 0
  blobs_lr: 0
  convolution_param {
    num_output: 2
    kernel_size: 4
    stride: 2
  }
}
layers {
  bottom: "upscore-conv3"
  bottom: "pool1"
  top: "upscore-conv3c"
  name: "crop-upscore-conv3"
  type: CROP
}
layers {
  bottom: "conv2_1"
  top: "score-conv2_1"
  name: "score-conv2_1"
  type: CONVOLUTION
  blobs_lr: 1
  blobs_lr: 2
  weight_decay: 1
  weight_decay: 0
  convolution_param {
    num_output: 2
    kernel_size: 1
    engine: CAFFE
  }
}
layers {
  bottom: "conv2_2"
  top: "score-conv2_2"
  name: "score-conv2_2"
  type: CONVOLUTION
  blobs_lr: 1
  blobs_lr: 2
  weight_decay: 1
  weight_decay: 0
  convolution_param {
    num_output: 2
    kernel_size: 1
    engine: CAFFE
  }
}
layers {
  bottom: "score-conv2_1"
  bottom: "score-conv2_2"
  bottom: "upscore-conv3c"
  top: "score-conv2,3"
  name: "fuse-conv2,3"
  type: ELTWISE
  eltwise_param {
    operation: SUM
  }
}
layers {
  bottom: "score-conv2,3"
  top: "upscore-conv2,3"
  name: "upscore-conv2,3"
  type: DECONVOLUTION
  blobs_lr: 0
  blobs_lr: 0
  convolution_param {
    num_output: 2
    kernel_size: 4
    stride: 2
  }
}
layers {
  bottom: "upscore-conv2,3"
  bottom: "conv1_1"
  top: "upscore-conv2,3c"
  name: "crop-upscore-conv2,3"
  type: CROP
}
layers {
  bottom: "conv1_1"
  top: "score-conv1_1"
  name: "score-conv1_1"
  type: CONVOLUTION
  blobs_lr: 1
  blobs_lr: 2
  weight_decay: 1
  weight_decay: 0
  convolution_param {
    num_output: 2
    kernel_size: 1
    engine: CAFFE
  }
}
layers {
  bottom: "conv1_2"
  top: "score-conv1_2"
  name: "score-conv1_2"
  type: CONVOLUTION
  blobs_lr: 1
  blobs_lr: 2
  weight_decay: 1
  weight_decay: 0
  convolution_param {
    num_output: 2
    kernel_size: 1
    engine: CAFFE
  }
}
layers {
  bottom: "score-conv1_1"
  bottom: "score-conv1_2"
  bottom: "upscore-conv2,3c"
  top: "score"
  name: "fuse-conv1,2,3"
  type: ELTWISE
  eltwise_param {
    operation: SUM
  }
}
layers {
  bottom: "score"
  bottom: "label"
  top: "loss"
  name: "loss"
  type: SOFTMAX_LOSS
  loss_param {
    ignore_label: 255
    normalize: false
  }
}
layers {
  bottom: "score"
  top: "score-neg"
  top: "score-pos"
  name: "slice"
  type: SLICE
  slice_param {
    slice_dim: 1
    slice_point: 1
  }
  include {
    phase: TEST
  }
}
layers {
  bottom: "score-pos"
  top: "prob"
  name: "prob"
  type: SIGMOID
  include {
    phase: TEST
  }
}
layers {
  bottom: "prob"
  bottom: "score-neg"
  name: "silence"
  type: SILENCE
  include {
    phase: TEST
  }
}
state {
  phase: TEST
}
I0130 18:01:14.344926 30577 layer_factory.hpp:78] Creating layer data
I0130 18:01:14.344939 30577 net.cpp:69] Creating Layer data
I0130 18:01:14.344949 30577 net.cpp:358] data -> data
I0130 18:01:14.344959 30577 net.cpp:98] Setting up data
I0130 18:01:14.344966 30577 data_layer.cpp:34] Opening dataset /home/shelhamer/dpb/data/bsd500/bsd500-val-lmdb
I0130 18:01:14.345582 30577 data_layer.cpp:73] output data size: 1,3,321,481
I0130 18:01:14.346294 30577 net.cpp:105] Top shape: 1 3 321 481 (463203)
I0130 18:01:14.346305 30577 layer_factory.hpp:78] Creating layer label
I0130 18:01:14.346317 30577 net.cpp:69] Creating Layer label
I0130 18:01:14.346324 30577 net.cpp:358] label -> label
I0130 18:01:14.346335 30577 net.cpp:98] Setting up label
I0130 18:01:14.346343 30577 data_layer.cpp:34] Opening dataset /home/shelhamer/dpb/data/bsd500/bsd500-val-gt-union-lmdb
I0130 18:01:14.346467 30577 data_layer.cpp:73] output data size: 1,1,321,481
I0130 18:01:14.346791 30577 net.cpp:105] Top shape: 1 1 321 481 (154401)
I0130 18:01:14.346799 30577 layer_factory.hpp:78] Creating layer conv1_1
I0130 18:01:14.346812 30577 net.cpp:69] Creating Layer conv1_1
I0130 18:01:14.346817 30577 net.cpp:396] conv1_1 <- data
I0130 18:01:14.346829 30577 net.cpp:358] conv1_1 -> conv1_1
I0130 18:01:14.346840 30577 net.cpp:98] Setting up conv1_1
I0130 18:01:14.347337 30577 net.cpp:105] Top shape: 1 64 321 481 (9881664)
I0130 18:01:14.347363 30577 layer_factory.hpp:78] Creating layer relu1_1
I0130 18:01:14.347373 30577 net.cpp:69] Creating Layer relu1_1
I0130 18:01:14.347378 30577 net.cpp:396] relu1_1 <- conv1_1
I0130 18:01:14.347388 30577 net.cpp:347] relu1_1 -> conv1_1 (in-place)
I0130 18:01:14.347396 30577 net.cpp:98] Setting up relu1_1
I0130 18:01:14.347404 30577 net.cpp:105] Top shape: 1 64 321 481 (9881664)
I0130 18:01:14.347409 30577 layer_factory.hpp:78] Creating layer conv1_1_relu1_1_0_split
I0130 18:01:14.347419 30577 net.cpp:69] Creating Layer conv1_1_relu1_1_0_split
I0130 18:01:14.347424 30577 net.cpp:396] conv1_1_relu1_1_0_split <- conv1_1
I0130 18:01:14.347434 30577 net.cpp:358] conv1_1_relu1_1_0_split -> conv1_1_relu1_1_0_split_0
I0130 18:01:14.347443 30577 net.cpp:358] conv1_1_relu1_1_0_split -> conv1_1_relu1_1_0_split_1
I0130 18:01:14.347455 30577 net.cpp:358] conv1_1_relu1_1_0_split -> conv1_1_relu1_1_0_split_2
I0130 18:01:14.347463 30577 net.cpp:98] Setting up conv1_1_relu1_1_0_split
I0130 18:01:14.347471 30577 net.cpp:105] Top shape: 1 64 321 481 (9881664)
I0130 18:01:14.347477 30577 net.cpp:105] Top shape: 1 64 321 481 (9881664)
I0130 18:01:14.347484 30577 net.cpp:105] Top shape: 1 64 321 481 (9881664)
I0130 18:01:14.347491 30577 layer_factory.hpp:78] Creating layer conv1_2
I0130 18:01:14.347498 30577 net.cpp:69] Creating Layer conv1_2
I0130 18:01:14.347504 30577 net.cpp:396] conv1_2 <- conv1_1_relu1_1_0_split_0
I0130 18:01:14.347512 30577 net.cpp:358] conv1_2 -> conv1_2
I0130 18:01:14.347522 30577 net.cpp:98] Setting up conv1_2
I0130 18:01:14.347908 30577 net.cpp:105] Top shape: 1 64 321 481 (9881664)
I0130 18:01:14.347933 30577 layer_factory.hpp:78] Creating layer relu1_2
I0130 18:01:14.347941 30577 net.cpp:69] Creating Layer relu1_2
I0130 18:01:14.347947 30577 net.cpp:396] relu1_2 <- conv1_2
I0130 18:01:14.347956 30577 net.cpp:347] relu1_2 -> conv1_2 (in-place)
I0130 18:01:14.347965 30577 net.cpp:98] Setting up relu1_2
I0130 18:01:14.347971 30577 net.cpp:105] Top shape: 1 64 321 481 (9881664)
I0130 18:01:14.347977 30577 layer_factory.hpp:78] Creating layer conv1_2_relu1_2_0_split
I0130 18:01:14.347985 30577 net.cpp:69] Creating Layer conv1_2_relu1_2_0_split
I0130 18:01:14.347990 30577 net.cpp:396] conv1_2_relu1_2_0_split <- conv1_2
I0130 18:01:14.348000 30577 net.cpp:358] conv1_2_relu1_2_0_split -> conv1_2_relu1_2_0_split_0
I0130 18:01:14.348009 30577 net.cpp:358] conv1_2_relu1_2_0_split -> conv1_2_relu1_2_0_split_1
I0130 18:01:14.348021 30577 net.cpp:98] Setting up conv1_2_relu1_2_0_split
I0130 18:01:14.348027 30577 net.cpp:105] Top shape: 1 64 321 481 (9881664)
I0130 18:01:14.348033 30577 net.cpp:105] Top shape: 1 64 321 481 (9881664)
I0130 18:01:14.348040 30577 layer_factory.hpp:78] Creating layer pool1
I0130 18:01:14.348049 30577 net.cpp:69] Creating Layer pool1
I0130 18:01:14.348055 30577 net.cpp:396] pool1 <- conv1_2_relu1_2_0_split_0
I0130 18:01:14.348064 30577 net.cpp:358] pool1 -> pool1
I0130 18:01:14.348073 30577 net.cpp:98] Setting up pool1
I0130 18:01:14.348081 30577 net.cpp:105] Top shape: 1 64 161 241 (2483264)
I0130 18:01:14.348088 30577 layer_factory.hpp:78] Creating layer pool1_pool1_0_split
I0130 18:01:14.348094 30577 net.cpp:69] Creating Layer pool1_pool1_0_split
I0130 18:01:14.348100 30577 net.cpp:396] pool1_pool1_0_split <- pool1
I0130 18:01:14.348109 30577 net.cpp:358] pool1_pool1_0_split -> pool1_pool1_0_split_0
I0130 18:01:14.348119 30577 net.cpp:358] pool1_pool1_0_split -> pool1_pool1_0_split_1
I0130 18:01:14.348129 30577 net.cpp:98] Setting up pool1_pool1_0_split
I0130 18:01:14.348135 30577 net.cpp:105] Top shape: 1 64 161 241 (2483264)
I0130 18:01:14.348141 30577 net.cpp:105] Top shape: 1 64 161 241 (2483264)
I0130 18:01:14.348147 30577 layer_factory.hpp:78] Creating layer conv2_1
I0130 18:01:14.348155 30577 net.cpp:69] Creating Layer conv2_1
I0130 18:01:14.348161 30577 net.cpp:396] conv2_1 <- pool1_pool1_0_split_0
I0130 18:01:14.348170 30577 net.cpp:358] conv2_1 -> conv2_1
I0130 18:01:14.348179 30577 net.cpp:98] Setting up conv2_1
I0130 18:01:14.348492 30577 net.cpp:105] Top shape: 1 128 161 241 (4966528)
I0130 18:01:14.348520 30577 layer_factory.hpp:78] Creating layer relu2_1
I0130 18:01:14.348530 30577 net.cpp:69] Creating Layer relu2_1
I0130 18:01:14.348538 30577 net.cpp:396] relu2_1 <- conv2_1
I0130 18:01:14.348551 30577 net.cpp:347] relu2_1 -> conv2_1 (in-place)
I0130 18:01:14.348562 30577 net.cpp:98] Setting up relu2_1
I0130 18:01:14.348569 30577 net.cpp:105] Top shape: 1 128 161 241 (4966528)
I0130 18:01:14.348577 30577 layer_factory.hpp:78] Creating layer conv2_1_relu2_1_0_split
I0130 18:01:14.348587 30577 net.cpp:69] Creating Layer conv2_1_relu2_1_0_split
I0130 18:01:14.348593 30577 net.cpp:396] conv2_1_relu2_1_0_split <- conv2_1
I0130 18:01:14.348603 30577 net.cpp:358] conv2_1_relu2_1_0_split -> conv2_1_relu2_1_0_split_0
I0130 18:01:14.348613 30577 net.cpp:358] conv2_1_relu2_1_0_split -> conv2_1_relu2_1_0_split_1
I0130 18:01:14.348621 30577 net.cpp:98] Setting up conv2_1_relu2_1_0_split
I0130 18:01:14.348630 30577 net.cpp:105] Top shape: 1 128 161 241 (4966528)
I0130 18:01:14.348639 30577 net.cpp:105] Top shape: 1 128 161 241 (4966528)
I0130 18:01:14.348644 30577 layer_factory.hpp:78] Creating layer conv2_2
I0130 18:01:14.348654 30577 net.cpp:69] Creating Layer conv2_2
I0130 18:01:14.348659 30577 net.cpp:396] conv2_2 <- conv2_1_relu2_1_0_split_0
I0130 18:01:14.348669 30577 net.cpp:358] conv2_2 -> conv2_2
I0130 18:01:14.348677 30577 net.cpp:98] Setting up conv2_2
I0130 18:01:14.349122 30577 net.cpp:105] Top shape: 1 128 161 241 (4966528)
I0130 18:01:14.349139 30577 layer_factory.hpp:78] Creating layer relu2_2
I0130 18:01:14.349148 30577 net.cpp:69] Creating Layer relu2_2
I0130 18:01:14.349155 30577 net.cpp:396] relu2_2 <- conv2_2
I0130 18:01:14.349164 30577 net.cpp:347] relu2_2 -> conv2_2 (in-place)
I0130 18:01:14.349174 30577 net.cpp:98] Setting up relu2_2
I0130 18:01:14.349180 30577 net.cpp:105] Top shape: 1 128 161 241 (4966528)
I0130 18:01:14.349186 30577 layer_factory.hpp:78] Creating layer conv2_2_relu2_2_0_split
I0130 18:01:14.349195 30577 net.cpp:69] Creating Layer conv2_2_relu2_2_0_split
I0130 18:01:14.349200 30577 net.cpp:396] conv2_2_relu2_2_0_split <- conv2_2
I0130 18:01:14.349208 30577 net.cpp:358] conv2_2_relu2_2_0_split -> conv2_2_relu2_2_0_split_0
I0130 18:01:14.349221 30577 net.cpp:358] conv2_2_relu2_2_0_split -> conv2_2_relu2_2_0_split_1
I0130 18:01:14.349231 30577 net.cpp:98] Setting up conv2_2_relu2_2_0_split
I0130 18:01:14.349237 30577 net.cpp:105] Top shape: 1 128 161 241 (4966528)
I0130 18:01:14.349243 30577 net.cpp:105] Top shape: 1 128 161 241 (4966528)
I0130 18:01:14.349251 30577 layer_factory.hpp:78] Creating layer pool2
I0130 18:01:14.349261 30577 net.cpp:69] Creating Layer pool2
I0130 18:01:14.349267 30577 net.cpp:396] pool2 <- conv2_2_relu2_2_0_split_0
I0130 18:01:14.349277 30577 net.cpp:358] pool2 -> pool2
I0130 18:01:14.349285 30577 net.cpp:98] Setting up pool2
I0130 18:01:14.349294 30577 net.cpp:105] Top shape: 1 128 81 121 (1254528)
I0130 18:01:14.349300 30577 layer_factory.hpp:78] Creating layer conv3_1
I0130 18:01:14.349309 30577 net.cpp:69] Creating Layer conv3_1
I0130 18:01:14.349315 30577 net.cpp:396] conv3_1 <- pool2
I0130 18:01:14.349324 30577 net.cpp:358] conv3_1 -> conv3_1
I0130 18:01:14.349334 30577 net.cpp:98] Setting up conv3_1
I0130 18:01:14.350029 30577 net.cpp:105] Top shape: 1 256 81 121 (2509056)
I0130 18:01:14.350082 30577 layer_factory.hpp:78] Creating layer relu3_1
I0130 18:01:14.350100 30577 net.cpp:69] Creating Layer relu3_1
I0130 18:01:14.350108 30577 net.cpp:396] relu3_1 <- conv3_1
I0130 18:01:14.350121 30577 net.cpp:347] relu3_1 -> conv3_1 (in-place)
I0130 18:01:14.350132 30577 net.cpp:98] Setting up relu3_1
I0130 18:01:14.350141 30577 net.cpp:105] Top shape: 1 256 81 121 (2509056)
I0130 18:01:14.350148 30577 layer_factory.hpp:78] Creating layer conv3_1_relu3_1_0_split
I0130 18:01:14.350157 30577 net.cpp:69] Creating Layer conv3_1_relu3_1_0_split
I0130 18:01:14.350165 30577 net.cpp:396] conv3_1_relu3_1_0_split <- conv3_1
I0130 18:01:14.350175 30577 net.cpp:358] conv3_1_relu3_1_0_split -> conv3_1_relu3_1_0_split_0
I0130 18:01:14.350188 30577 net.cpp:358] conv3_1_relu3_1_0_split -> conv3_1_relu3_1_0_split_1
I0130 18:01:14.350198 30577 net.cpp:98] Setting up conv3_1_relu3_1_0_split
I0130 18:01:14.350206 30577 net.cpp:105] Top shape: 1 256 81 121 (2509056)
I0130 18:01:14.350214 30577 net.cpp:105] Top shape: 1 256 81 121 (2509056)
I0130 18:01:14.350222 30577 layer_factory.hpp:78] Creating layer conv3_2
I0130 18:01:14.350234 30577 net.cpp:69] Creating Layer conv3_2
I0130 18:01:14.350241 30577 net.cpp:396] conv3_2 <- conv3_1_relu3_1_0_split_0
I0130 18:01:14.350251 30577 net.cpp:358] conv3_2 -> conv3_2
I0130 18:01:14.350261 30577 net.cpp:98] Setting up conv3_2
I0130 18:01:14.351007 30577 net.cpp:105] Top shape: 1 256 81 121 (2509056)
I0130 18:01:14.351024 30577 layer_factory.hpp:78] Creating layer conv3_2_conv3_2_0_split
I0130 18:01:14.351033 30577 net.cpp:69] Creating Layer conv3_2_conv3_2_0_split
I0130 18:01:14.351040 30577 net.cpp:396] conv3_2_conv3_2_0_split <- conv3_2
I0130 18:01:14.351050 30577 net.cpp:358] conv3_2_conv3_2_0_split -> conv3_2_conv3_2_0_split_0
I0130 18:01:14.351060 30577 net.cpp:358] conv3_2_conv3_2_0_split -> conv3_2_conv3_2_0_split_1
I0130 18:01:14.351070 30577 net.cpp:98] Setting up conv3_2_conv3_2_0_split
I0130 18:01:14.351078 30577 net.cpp:105] Top shape: 1 256 81 121 (2509056)
I0130 18:01:14.351083 30577 net.cpp:105] Top shape: 1 256 81 121 (2509056)
I0130 18:01:14.351089 30577 layer_factory.hpp:78] Creating layer conv3_3
I0130 18:01:14.351099 30577 net.cpp:69] Creating Layer conv3_3
I0130 18:01:14.351105 30577 net.cpp:396] conv3_3 <- conv3_2_conv3_2_0_split_0
I0130 18:01:14.351114 30577 net.cpp:358] conv3_3 -> conv3_3
I0130 18:01:14.351124 30577 net.cpp:98] Setting up conv3_3
I0130 18:01:14.352336 30577 net.cpp:105] Top shape: 1 256 81 121 (2509056)
I0130 18:01:14.352352 30577 layer_factory.hpp:78] Creating layer relu3_3
I0130 18:01:14.352363 30577 net.cpp:69] Creating Layer relu3_3
I0130 18:01:14.352370 30577 net.cpp:396] relu3_3 <- conv3_3
I0130 18:01:14.352380 30577 net.cpp:347] relu3_3 -> conv3_3 (in-place)
I0130 18:01:14.352388 30577 net.cpp:98] Setting up relu3_3
I0130 18:01:14.352396 30577 net.cpp:105] Top shape: 1 256 81 121 (2509056)
I0130 18:01:14.352402 30577 layer_factory.hpp:78] Creating layer score-conv3_1
I0130 18:01:14.352411 30577 net.cpp:69] Creating Layer score-conv3_1
I0130 18:01:14.352417 30577 net.cpp:396] score-conv3_1 <- conv3_1_relu3_1_0_split_1
I0130 18:01:14.352427 30577 net.cpp:358] score-conv3_1 -> score-conv3_1
I0130 18:01:14.352437 30577 net.cpp:98] Setting up score-conv3_1
I0130 18:01:14.352470 30577 net.cpp:105] Top shape: 1 2 81 121 (19602)
I0130 18:01:14.352483 30577 layer_factory.hpp:78] Creating layer score-conv3_2
I0130 18:01:14.352491 30577 net.cpp:69] Creating Layer score-conv3_2
I0130 18:01:14.352499 30577 net.cpp:396] score-conv3_2 <- conv3_2_conv3_2_0_split_1
I0130 18:01:14.352509 30577 net.cpp:358] score-conv3_2 -> score-conv3_2
I0130 18:01:14.352519 30577 net.cpp:98] Setting up score-conv3_2
I0130 18:01:14.352555 30577 net.cpp:105] Top shape: 1 2 81 121 (19602)
I0130 18:01:14.352571 30577 layer_factory.hpp:78] Creating layer score-conv3_3
I0130 18:01:14.352581 30577 net.cpp:69] Creating Layer score-conv3_3
I0130 18:01:14.352587 30577 net.cpp:396] score-conv3_3 <- conv3_3
I0130 18:01:14.352597 30577 net.cpp:358] score-conv3_3 -> score-conv3_3
I0130 18:01:14.352607 30577 net.cpp:98] Setting up score-conv3_3
I0130 18:01:14.352643 30577 net.cpp:105] Top shape: 1 2 81 121 (19602)
I0130 18:01:14.352653 30577 layer_factory.hpp:78] Creating layer fuse-conv3
I0130 18:01:14.352664 30577 net.cpp:69] Creating Layer fuse-conv3
I0130 18:01:14.352671 30577 net.cpp:396] fuse-conv3 <- score-conv3_1
I0130 18:01:14.352679 30577 net.cpp:396] fuse-conv3 <- score-conv3_2
I0130 18:01:14.352687 30577 net.cpp:396] fuse-conv3 <- score-conv3_3
I0130 18:01:14.352696 30577 net.cpp:358] fuse-conv3 -> score-conv3
I0130 18:01:14.352707 30577 net.cpp:98] Setting up fuse-conv3
I0130 18:01:14.352716 30577 net.cpp:105] Top shape: 1 2 81 121 (19602)
I0130 18:01:14.352725 30577 layer_factory.hpp:78] Creating layer upscore-conv3
I0130 18:01:14.352732 30577 net.cpp:69] Creating Layer upscore-conv3
I0130 18:01:14.352740 30577 net.cpp:396] upscore-conv3 <- score-conv3
I0130 18:01:14.352749 30577 net.cpp:358] upscore-conv3 -> upscore-conv3
I0130 18:01:14.352759 30577 net.cpp:98] Setting up upscore-conv3
I0130 18:01:14.352859 30577 net.cpp:105] Top shape: 1 2 164 244 (80032)
I0130 18:01:14.352871 30577 layer_factory.hpp:78] Creating layer crop-upscore-conv3
I0130 18:01:14.352880 30577 net.cpp:69] Creating Layer crop-upscore-conv3
I0130 18:01:14.352888 30577 net.cpp:396] crop-upscore-conv3 <- upscore-conv3
I0130 18:01:14.352896 30577 net.cpp:396] crop-upscore-conv3 <- pool1_pool1_0_split_1
I0130 18:01:14.352908 30577 net.cpp:358] crop-upscore-conv3 -> upscore-conv3c
I0130 18:01:14.352918 30577 net.cpp:98] Setting up crop-upscore-conv3
I0130 18:01:14.352970 30577 net.cpp:105] Top shape: 1 2 161 241 (77602)
I0130 18:01:14.352978 30577 layer_factory.hpp:78] Creating layer score-conv2_1
I0130 18:01:14.352987 30577 net.cpp:69] Creating Layer score-conv2_1
I0130 18:01:14.352994 30577 net.cpp:396] score-conv2_1 <- conv2_1_relu2_1_0_split_1
I0130 18:01:14.353003 30577 net.cpp:358] score-conv2_1 -> score-conv2_1
I0130 18:01:14.353016 30577 net.cpp:98] Setting up score-conv2_1
I0130 18:01:14.353111 30577 net.cpp:105] Top shape: 1 2 161 241 (77602)
I0130 18:01:14.353123 30577 layer_factory.hpp:78] Creating layer score-conv2_2
I0130 18:01:14.353133 30577 net.cpp:69] Creating Layer score-conv2_2
I0130 18:01:14.353140 30577 net.cpp:396] score-conv2_2 <- conv2_2_relu2_2_0_split_1
I0130 18:01:14.353153 30577 net.cpp:358] score-conv2_2 -> score-conv2_2
I0130 18:01:14.353164 30577 net.cpp:98] Setting up score-conv2_2
I0130 18:01:14.353255 30577 net.cpp:105] Top shape: 1 2 161 241 (77602)
I0130 18:01:14.353268 30577 layer_factory.hpp:78] Creating layer fuse-conv2,3
I0130 18:01:14.353283 30577 net.cpp:69] Creating Layer fuse-conv2,3
I0130 18:01:14.353291 30577 net.cpp:396] fuse-conv2,3 <- score-conv2_1
I0130 18:01:14.353298 30577 net.cpp:396] fuse-conv2,3 <- score-conv2_2
I0130 18:01:14.353307 30577 net.cpp:396] fuse-conv2,3 <- upscore-conv3c
I0130 18:01:14.353317 30577 net.cpp:358] fuse-conv2,3 -> score-conv2,3
I0130 18:01:14.353328 30577 net.cpp:98] Setting up fuse-conv2,3
I0130 18:01:14.353337 30577 net.cpp:105] Top shape: 1 2 161 241 (77602)
I0130 18:01:14.353343 30577 layer_factory.hpp:78] Creating layer upscore-conv2,3
I0130 18:01:14.353350 30577 net.cpp:69] Creating Layer upscore-conv2,3
I0130 18:01:14.353356 30577 net.cpp:396] upscore-conv2,3 <- score-conv2,3
I0130 18:01:14.353365 30577 net.cpp:358] upscore-conv2,3 -> upscore-conv2,3
I0130 18:01:14.353375 30577 net.cpp:98] Setting up upscore-conv2,3
I0130 18:01:14.353688 30577 net.cpp:105] Top shape: 1 2 324 484 (313632)
I0130 18:01:14.353701 30577 layer_factory.hpp:78] Creating layer crop-upscore-conv2,3
I0130 18:01:14.353723 30577 net.cpp:69] Creating Layer crop-upscore-conv2,3
I0130 18:01:14.353730 30577 net.cpp:396] crop-upscore-conv2,3 <- upscore-conv2,3
I0130 18:01:14.353739 30577 net.cpp:396] crop-upscore-conv2,3 <- conv1_1_relu1_1_0_split_1
I0130 18:01:14.353749 30577 net.cpp:358] crop-upscore-conv2,3 -> upscore-conv2,3c
I0130 18:01:14.353760 30577 net.cpp:98] Setting up crop-upscore-conv2,3
I0130 18:01:14.353804 30577 net.cpp:105] Top shape: 1 2 321 481 (308802)
I0130 18:01:14.353812 30577 layer_factory.hpp:78] Creating layer score-conv1_1
I0130 18:01:14.353821 30577 net.cpp:69] Creating Layer score-conv1_1
I0130 18:01:14.353827 30577 net.cpp:396] score-conv1_1 <- conv1_1_relu1_1_0_split_2
I0130 18:01:14.353837 30577 net.cpp:358] score-conv1_1 -> score-conv1_1
I0130 18:01:14.353847 30577 net.cpp:98] Setting up score-conv1_1
I0130 18:01:14.354177 30577 net.cpp:105] Top shape: 1 2 321 481 (308802)
I0130 18:01:14.354192 30577 layer_factory.hpp:78] Creating layer score-conv1_2
I0130 18:01:14.354208 30577 net.cpp:69] Creating Layer score-conv1_2
I0130 18:01:14.354218 30577 net.cpp:396] score-conv1_2 <- conv1_2_relu1_2_0_split_1
I0130 18:01:14.354228 30577 net.cpp:358] score-conv1_2 -> score-conv1_2
I0130 18:01:14.354238 30577 net.cpp:98] Setting up score-conv1_2
I0130 18:01:14.354560 30577 net.cpp:105] Top shape: 1 2 321 481 (308802)
I0130 18:01:14.354573 30577 layer_factory.hpp:78] Creating layer fuse-conv1,2,3
I0130 18:01:14.354591 30577 net.cpp:69] Creating Layer fuse-conv1,2,3
I0130 18:01:14.354598 30577 net.cpp:396] fuse-conv1,2,3 <- score-conv1_1
I0130 18:01:14.354606 30577 net.cpp:396] fuse-conv1,2,3 <- score-conv1_2
I0130 18:01:14.354615 30577 net.cpp:396] fuse-conv1,2,3 <- upscore-conv2,3c
I0130 18:01:14.354626 30577 net.cpp:358] fuse-conv1,2,3 -> score
I0130 18:01:14.354636 30577 net.cpp:98] Setting up fuse-conv1,2,3
I0130 18:01:14.354645 30577 net.cpp:105] Top shape: 1 2 321 481 (308802)
I0130 18:01:14.354651 30577 layer_factory.hpp:78] Creating layer score_fuse-conv1,2,3_0_split
I0130 18:01:14.354660 30577 net.cpp:69] Creating Layer score_fuse-conv1,2,3_0_split
I0130 18:01:14.354665 30577 net.cpp:396] score_fuse-conv1,2,3_0_split <- score
I0130 18:01:14.354676 30577 net.cpp:358] score_fuse-conv1,2,3_0_split -> score_fuse-conv1,2,3_0_split_0
I0130 18:01:14.354686 30577 net.cpp:358] score_fuse-conv1,2,3_0_split -> score_fuse-conv1,2,3_0_split_1
I0130 18:01:14.354696 30577 net.cpp:98] Setting up score_fuse-conv1,2,3_0_split
I0130 18:01:14.354702 30577 net.cpp:105] Top shape: 1 2 321 481 (308802)
I0130 18:01:14.354709 30577 net.cpp:105] Top shape: 1 2 321 481 (308802)
I0130 18:01:14.354715 30577 layer_factory.hpp:78] Creating layer loss
I0130 18:01:14.354723 30577 net.cpp:69] Creating Layer loss
I0130 18:01:14.354729 30577 net.cpp:396] loss <- score_fuse-conv1,2,3_0_split_0
I0130 18:01:14.354737 30577 net.cpp:396] loss <- label
I0130 18:01:14.354744 30577 net.cpp:358] loss -> loss
I0130 18:01:14.354754 30577 net.cpp:98] Setting up loss
I0130 18:01:14.354764 30577 layer_factory.hpp:78] Creating layer loss
I0130 18:01:14.355381 30577 net.cpp:105] Top shape: 1 1 1 1 (1)
I0130 18:01:14.355389 30577 net.cpp:111]     with loss weight 1
I0130 18:01:14.355412 30577 layer_factory.hpp:78] Creating layer slice
I0130 18:01:14.355428 30577 net.cpp:69] Creating Layer slice
I0130 18:01:14.355437 30577 net.cpp:396] slice <- score_fuse-conv1,2,3_0_split_1
I0130 18:01:14.355445 30577 net.cpp:358] slice -> score-neg
I0130 18:01:14.355463 30577 net.cpp:358] slice -> score-pos
I0130 18:01:14.355473 30577 net.cpp:98] Setting up slice
I0130 18:01:14.355485 30577 net.cpp:105] Top shape: 1 1 321 481 (154401)
I0130 18:01:14.355492 30577 net.cpp:105] Top shape: 1 1 321 481 (154401)
I0130 18:01:14.355499 30577 layer_factory.hpp:78] Creating layer prob
I0130 18:01:14.355506 30577 net.cpp:69] Creating Layer prob
I0130 18:01:14.355512 30577 net.cpp:396] prob <- score-pos
I0130 18:01:14.355521 30577 net.cpp:358] prob -> prob
I0130 18:01:14.355531 30577 net.cpp:98] Setting up prob
I0130 18:01:14.355538 30577 net.cpp:105] Top shape: 1 1 321 481 (154401)
I0130 18:01:14.355545 30577 layer_factory.hpp:78] Creating layer silence
I0130 18:01:14.355553 30577 net.cpp:69] Creating Layer silence
I0130 18:01:14.355559 30577 net.cpp:396] silence <- prob
I0130 18:01:14.355566 30577 net.cpp:396] silence <- score-neg
I0130 18:01:14.355573 30577 net.cpp:98] Setting up silence
I0130 18:01:14.355581 30577 net.cpp:174] silence does not need backward computation.
…
