…
I0129 19:51:38.171735 16273 net.cpp:39] Initializing net from parameters: 
name: "vgg-jet0-denoise"
layers {
  top: "data"
  name: "data"
  type: DATA
  data_param {
    source: "/home/shelhamer/dpb/data/bsd500/bsd500-train-multi-lmdb"
    batch_size: 1
    backend: LMDB
  }
  include {
    phase: TRAIN
  }
  transform_param {
    mean_value: 109.9
    mean_value: 112.2
    mean_value: 93.8
  }
}
layers {
  top: "label"
  name: "label"
  type: DATA
  data_param {
    source: "/home/shelhamer/dpb/data/bsd500/bsd500-train-gt-denoise-lmdb"
    batch_size: 1
    backend: LMDB
  }
  include {
    phase: TRAIN
  }
}
layers {
  bottom: "data"
  top: "conv1_1"
  name: "conv1_1"
  type: CONVOLUTION
  blobs_lr: 0
  blobs_lr: 0
  weight_decay: 1
  weight_decay: 0
  convolution_param {
    num_output: 64
    pad: 1
    kernel_size: 3
    engine: CAFFE
  }
}
layers {
  bottom: "conv1_1"
  top: "conv1_1"
  name: "relu1_1"
  type: RELU
}
layers {
  bottom: "conv1_1"
  top: "conv1_2"
  name: "conv1_2"
  type: CONVOLUTION
  blobs_lr: 0
  blobs_lr: 0
  weight_decay: 1
  weight_decay: 0
  convolution_param {
    num_output: 64
    pad: 1
    kernel_size: 3
    engine: CAFFE
  }
}
layers {
  bottom: "conv1_2"
  top: "conv1_2"
  name: "relu1_2"
  type: RELU
}
layers {
  bottom: "conv1_2"
  top: "pool1"
  name: "pool1"
  type: POOLING
  pooling_param {
    pool: MAX
    kernel_size: 2
    stride: 2
  }
}
layers {
  bottom: "pool1"
  top: "conv2_1"
  name: "conv2_1"
  type: CONVOLUTION
  blobs_lr: 0
  blobs_lr: 0
  weight_decay: 1
  weight_decay: 0
  convolution_param {
    num_output: 128
    pad: 1
    kernel_size: 3
    engine: CAFFE
  }
}
layers {
  bottom: "conv2_1"
  top: "conv2_1"
  name: "relu2_1"
  type: RELU
}
layers {
  bottom: "conv2_1"
  top: "conv2_2"
  name: "conv2_2"
  type: CONVOLUTION
  blobs_lr: 0
  blobs_lr: 0
  weight_decay: 1
  weight_decay: 0
  convolution_param {
    num_output: 128
    pad: 1
    kernel_size: 3
    engine: CAFFE
  }
}
layers {
  bottom: "conv2_2"
  top: "conv2_2"
  name: "relu2_2"
  type: RELU
}
layers {
  bottom: "conv2_2"
  top: "pool2"
  name: "pool2"
  type: POOLING
  pooling_param {
    pool: MAX
    kernel_size: 2
    stride: 2
  }
}
layers {
  bottom: "pool2"
  top: "conv3_1"
  name: "conv3_1"
  type: CONVOLUTION
  blobs_lr: 0
  blobs_lr: 0
  weight_decay: 1
  weight_decay: 0
  convolution_param {
    num_output: 256
    pad: 1
    kernel_size: 3
    engine: CAFFE
  }
}
layers {
  bottom: "conv3_1"
  top: "conv3_1"
  name: "relu3_1"
  type: RELU
}
layers {
  bottom: "conv3_1"
  top: "conv3_2"
  name: "conv3_2"
  type: CONVOLUTION
  blobs_lr: 0
  blobs_lr: 0
  weight_decay: 1
  weight_decay: 0
  convolution_param {
    num_output: 256
    pad: 1
    kernel_size: 3
    engine: CAFFE
  }
}
layers {
  bottom: "conv3_2"
  top: "conv3_3"
  name: "conv3_3"
  type: CONVOLUTION
  blobs_lr: 0
  blobs_lr: 0
  weight_decay: 1
  weight_decay: 0
  convolution_param {
    num_output: 256
    pad: 1
    kernel_size: 3
    engine: CAFFE
  }
}
layers {
  bottom: "conv3_3"
  top: "conv3_3"
  name: "relu3_3"
  type: RELU
}
layers {
  bottom: "conv3_1"
  top: "score-conv3_1"
  name: "score-conv3_1"
  type: CONVOLUTION
  blobs_lr: 1
  blobs_lr: 2
  weight_decay: 1
  weight_decay: 0
  convolution_param {
    num_output: 2
    pad: 1
    kernel_size: 3
    weight_filler {
      type: "xavier"
    }
    engine: CAFFE
  }
}
layers {
  bottom: "conv3_2"
  top: "score-conv3_2"
  name: "score-conv3_2"
  type: CONVOLUTION
  blobs_lr: 1
  blobs_lr: 2
  weight_decay: 1
  weight_decay: 0
  convolution_param {
    num_output: 2
    pad: 1
    kernel_size: 3
    weight_filler {
      type: "xavier"
    }
    engine: CAFFE
  }
}
layers {
  bottom: "conv3_3"
  top: "score-conv3_3"
  name: "score-conv3_3"
  type: CONVOLUTION
  blobs_lr: 1
  blobs_lr: 2
  weight_decay: 1
  weight_decay: 0
  convolution_param {
    num_output: 2
    pad: 1
    kernel_size: 3
    weight_filler {
      type: "xavier"
    }
    engine: CAFFE
  }
}
layers {
  bottom: "score-conv3_1"
  bottom: "score-conv3_2"
  bottom: "score-conv3_3"
  top: "score-conv3"
  name: "fuse-conv3"
  type: ELTWISE
  eltwise_param {
    operation: SUM
  }
}
layers {
  bottom: "score-conv3"
  top: "upscore-conv3"
  name: "upscore-conv3"
  type: DECONVOLUTION
  blobs_lr: 0
  blobs_lr: 0
  convolution_param {
    num_output: 2
    kernel_size: 4
    stride: 2
  }
}
layers {
  bottom: "upscore-conv3"
  bottom: "pool1"
  top: "upscore-conv3c"
  name: "crop-upscore-conv3"
  type: CROP
}
layers {
  bottom: "conv2_1"
  top: "score-conv2_1"
  name: "score-conv2_1"
  type: CONVOLUTION
  blobs_lr: 1
  blobs_lr: 2
  weight_decay: 1
  weight_decay: 0
  convolution_param {
    num_output: 2
    pad: 1
    kernel_size: 3
    weight_filler {
      type: "xavier"
    }
    engine: CAFFE
  }
}
layers {
  bottom: "conv2_2"
  top: "score-conv2_2"
  name: "score-conv2_2"
  type: CONVOLUTION
  blobs_lr: 1
  blobs_lr: 2
  weight_decay: 1
  weight_decay: 0
  convolution_param {
    num_output: 2
    pad: 1
    kernel_size: 3
    weight_filler {
      type: "xavier"
    }
    engine: CAFFE
  }
}
layers {
  bottom: "score-conv2_1"
  bottom: "score-conv2_2"
  bottom: "upscore-conv3c"
  top: "score-conv2,3"
  name: "fuse-conv2,3"
  type: ELTWISE
  eltwise_param {
    operation: SUM
  }
}
layers {
  bottom: "score-conv2,3"
  top: "upscore-conv2,3"
  name: "upscore-conv2,3"
  type: DECONVOLUTION
  blobs_lr: 0
  blobs_lr: 0
  convolution_param {
    num_output: 2
    kernel_size: 4
    stride: 2
  }
}
layers {
  bottom: "upscore-conv2,3"
  bottom: "conv1_1"
  top: "upscore-conv2,3c"
  name: "crop-upscore-conv2,3"
  type: CROP
}
layers {
  bottom: "conv1_1"
  top: "score-conv1_1"
  name: "score-conv1_1"
  type: CONVOLUTION
  blobs_lr: 1
  blobs_lr: 2
  weight_decay: 1
  weight_decay: 0
  convolution_param {
    num_output: 2
    pad: 1
    kernel_size: 3
    weight_filler {
      type: "xavier"
    }
    engine: CAFFE
  }
}
layers {
  bottom: "conv1_2"
  top: "score-conv1_2"
  name: "score-conv1_2"
  type: CONVOLUTION
  blobs_lr: 1
  blobs_lr: 2
  weight_decay: 1
  weight_decay: 0
  convolution_param {
    num_output: 2
    pad: 1
    kernel_size: 3
    weight_filler {
      type: "xavier"
    }
    engine: CAFFE
  }
}
layers {
  bottom: "score-conv1_1"
  bottom: "score-conv1_2"
  bottom: "upscore-conv2,3c"
  top: "score"
  name: "fuse-conv1,2,3"
  type: ELTWISE
  eltwise_param {
    operation: SUM
  }
}
layers {
  bottom: "score"
  bottom: "label"
  top: "loss"
  name: "loss"
  type: SOFTMAX_LOSS
  loss_param {
    ignore_label: 255
    normalize: false
  }
}
layers {
  bottom: "score"
  top: "prob"
  name: "prob"
  type: SOFTMAX
}
layers {
  bottom: "prob"
  name: "silence-prob"
  type: SILENCE
}
state {
  phase: TRAIN
}
I0129 19:51:38.171948 16273 layer_factory.hpp:78] Creating layer data
I0129 19:51:38.171969 16273 net.cpp:69] Creating Layer data
I0129 19:51:38.171983 16273 net.cpp:358] data -> data
I0129 19:51:38.172014 16273 net.cpp:98] Setting up data
I0129 19:51:38.172026 16273 data_layer.cpp:32] Opening dataset /home/shelhamer/dpb/data/bsd500/bsd500-train-multi-lmdb
I0129 19:51:38.172528 16273 data_layer.cpp:71] output data size: 1,3,481,321
I0129 19:51:38.173199 16273 net.cpp:105] Top shape: 1 3 481 321 (463203)
I0129 19:51:38.173210 16273 layer_factory.hpp:78] Creating layer label
I0129 19:51:38.173219 16273 net.cpp:69] Creating Layer label
I0129 19:51:38.173225 16273 net.cpp:358] label -> label
I0129 19:51:38.173254 16273 net.cpp:98] Setting up label
I0129 19:51:38.173259 16273 data_layer.cpp:32] Opening dataset /home/shelhamer/dpb/data/bsd500/bsd500-train-gt-denoise-lmdb
I0129 19:51:38.173408 16273 data_layer.cpp:71] output data size: 1,1,481,321
I0129 19:51:38.173636 16273 net.cpp:105] Top shape: 1 1 481 321 (154401)
I0129 19:51:38.173645 16273 layer_factory.hpp:78] Creating layer conv1_1
I0129 19:51:38.173653 16273 net.cpp:69] Creating Layer conv1_1
I0129 19:51:38.173658 16273 net.cpp:396] conv1_1 <- data
I0129 19:51:38.173679 16273 net.cpp:358] conv1_1 -> conv1_1
I0129 19:51:38.173691 16273 net.cpp:98] Setting up conv1_1
I0129 19:51:38.174021 16273 net.cpp:105] Top shape: 1 64 481 321 (9881664)
I0129 19:51:38.174036 16273 layer_factory.hpp:78] Creating layer relu1_1
I0129 19:51:38.174042 16273 net.cpp:69] Creating Layer relu1_1
I0129 19:51:38.174046 16273 net.cpp:396] relu1_1 <- conv1_1
I0129 19:51:38.174052 16273 net.cpp:347] relu1_1 -> conv1_1 (in-place)
I0129 19:51:38.174058 16273 net.cpp:98] Setting up relu1_1
I0129 19:51:38.174063 16273 net.cpp:105] Top shape: 1 64 481 321 (9881664)
I0129 19:51:38.174067 16273 layer_factory.hpp:78] Creating layer conv1_1_relu1_1_0_split
I0129 19:51:38.174073 16273 net.cpp:69] Creating Layer conv1_1_relu1_1_0_split
I0129 19:51:38.174077 16273 net.cpp:396] conv1_1_relu1_1_0_split <- conv1_1
I0129 19:51:38.174083 16273 net.cpp:358] conv1_1_relu1_1_0_split -> conv1_1_relu1_1_0_split_0
I0129 19:51:38.174089 16273 net.cpp:358] conv1_1_relu1_1_0_split -> conv1_1_relu1_1_0_split_1
I0129 19:51:38.174098 16273 net.cpp:358] conv1_1_relu1_1_0_split -> conv1_1_relu1_1_0_split_2
I0129 19:51:38.174103 16273 net.cpp:98] Setting up conv1_1_relu1_1_0_split
I0129 19:51:38.174118 16273 net.cpp:105] Top shape: 1 64 481 321 (9881664)
I0129 19:51:38.174124 16273 net.cpp:105] Top shape: 1 64 481 321 (9881664)
I0129 19:51:38.174127 16273 net.cpp:105] Top shape: 1 64 481 321 (9881664)
I0129 19:51:38.174131 16273 layer_factory.hpp:78] Creating layer conv1_2
I0129 19:51:38.174137 16273 net.cpp:69] Creating Layer conv1_2
I0129 19:51:38.174141 16273 net.cpp:396] conv1_2 <- conv1_1_relu1_1_0_split_0
I0129 19:51:38.174147 16273 net.cpp:358] conv1_2 -> conv1_2
I0129 19:51:38.174154 16273 net.cpp:98] Setting up conv1_2
I0129 19:51:38.174461 16273 net.cpp:105] Top shape: 1 64 481 321 (9881664)
I0129 19:51:38.174474 16273 layer_factory.hpp:78] Creating layer relu1_2
I0129 19:51:38.174480 16273 net.cpp:69] Creating Layer relu1_2
I0129 19:51:38.174484 16273 net.cpp:396] relu1_2 <- conv1_2
I0129 19:51:38.174490 16273 net.cpp:347] relu1_2 -> conv1_2 (in-place)
I0129 19:51:38.174496 16273 net.cpp:98] Setting up relu1_2
I0129 19:51:38.174500 16273 net.cpp:105] Top shape: 1 64 481 321 (9881664)
I0129 19:51:38.174504 16273 layer_factory.hpp:78] Creating layer conv1_2_relu1_2_0_split
I0129 19:51:38.174510 16273 net.cpp:69] Creating Layer conv1_2_relu1_2_0_split
I0129 19:51:38.174513 16273 net.cpp:396] conv1_2_relu1_2_0_split <- conv1_2
I0129 19:51:38.174520 16273 net.cpp:358] conv1_2_relu1_2_0_split -> conv1_2_relu1_2_0_split_0
I0129 19:51:38.174527 16273 net.cpp:358] conv1_2_relu1_2_0_split -> conv1_2_relu1_2_0_split_1
I0129 19:51:38.174535 16273 net.cpp:98] Setting up conv1_2_relu1_2_0_split
I0129 19:51:38.174538 16273 net.cpp:105] Top shape: 1 64 481 321 (9881664)
I0129 19:51:38.174543 16273 net.cpp:105] Top shape: 1 64 481 321 (9881664)
I0129 19:51:38.174547 16273 layer_factory.hpp:78] Creating layer pool1
I0129 19:51:38.174556 16273 net.cpp:69] Creating Layer pool1
I0129 19:51:38.174559 16273 net.cpp:396] pool1 <- conv1_2_relu1_2_0_split_0
I0129 19:51:38.174566 16273 net.cpp:358] pool1 -> pool1
I0129 19:51:38.174571 16273 net.cpp:98] Setting up pool1
I0129 19:51:38.174584 16273 net.cpp:105] Top shape: 1 64 241 161 (2483264)
I0129 19:51:38.174588 16273 layer_factory.hpp:78] Creating layer pool1_pool1_0_split
I0129 19:51:38.174593 16273 net.cpp:69] Creating Layer pool1_pool1_0_split
I0129 19:51:38.174597 16273 net.cpp:396] pool1_pool1_0_split <- pool1
I0129 19:51:38.174603 16273 net.cpp:358] pool1_pool1_0_split -> pool1_pool1_0_split_0
I0129 19:51:38.174618 16273 net.cpp:358] pool1_pool1_0_split -> pool1_pool1_0_split_1
I0129 19:51:38.174625 16273 net.cpp:98] Setting up pool1_pool1_0_split
I0129 19:51:38.174630 16273 net.cpp:105] Top shape: 1 64 241 161 (2483264)
I0129 19:51:38.174634 16273 net.cpp:105] Top shape: 1 64 241 161 (2483264)
I0129 19:51:38.174639 16273 layer_factory.hpp:78] Creating layer conv2_1
I0129 19:51:38.174649 16273 net.cpp:69] Creating Layer conv2_1
I0129 19:51:38.174657 16273 net.cpp:396] conv2_1 <- pool1_pool1_0_split_0
I0129 19:51:38.174669 16273 net.cpp:358] conv2_1 -> conv2_1
I0129 19:51:38.174679 16273 net.cpp:98] Setting up conv2_1
I0129 19:51:38.174904 16273 net.cpp:105] Top shape: 1 128 241 161 (4966528)
I0129 19:51:38.174916 16273 layer_factory.hpp:78] Creating layer relu2_1
I0129 19:51:38.174921 16273 net.cpp:69] Creating Layer relu2_1
I0129 19:51:38.174926 16273 net.cpp:396] relu2_1 <- conv2_1
I0129 19:51:38.174932 16273 net.cpp:347] relu2_1 -> conv2_1 (in-place)
I0129 19:51:38.174937 16273 net.cpp:98] Setting up relu2_1
I0129 19:51:38.174942 16273 net.cpp:105] Top shape: 1 128 241 161 (4966528)
I0129 19:51:38.174945 16273 layer_factory.hpp:78] Creating layer conv2_1_relu2_1_0_split
I0129 19:51:38.174950 16273 net.cpp:69] Creating Layer conv2_1_relu2_1_0_split
I0129 19:51:38.174954 16273 net.cpp:396] conv2_1_relu2_1_0_split <- conv2_1
I0129 19:51:38.174959 16273 net.cpp:358] conv2_1_relu2_1_0_split -> conv2_1_relu2_1_0_split_0
I0129 19:51:38.174967 16273 net.cpp:358] conv2_1_relu2_1_0_split -> conv2_1_relu2_1_0_split_1
I0129 19:51:38.174973 16273 net.cpp:98] Setting up conv2_1_relu2_1_0_split
I0129 19:51:38.174976 16273 net.cpp:105] Top shape: 1 128 241 161 (4966528)
I0129 19:51:38.174980 16273 net.cpp:105] Top shape: 1 128 241 161 (4966528)
I0129 19:51:38.174984 16273 layer_factory.hpp:78] Creating layer conv2_2
I0129 19:51:38.174989 16273 net.cpp:69] Creating Layer conv2_2
I0129 19:51:38.174993 16273 net.cpp:396] conv2_2 <- conv2_1_relu2_1_0_split_0
I0129 19:51:38.174999 16273 net.cpp:358] conv2_2 -> conv2_2
I0129 19:51:38.175005 16273 net.cpp:98] Setting up conv2_2
I0129 19:51:38.175366 16273 net.cpp:105] Top shape: 1 128 241 161 (4966528)
I0129 19:51:38.175377 16273 layer_factory.hpp:78] Creating layer relu2_2
I0129 19:51:38.175384 16273 net.cpp:69] Creating Layer relu2_2
I0129 19:51:38.175387 16273 net.cpp:396] relu2_2 <- conv2_2
I0129 19:51:38.175393 16273 net.cpp:347] relu2_2 -> conv2_2 (in-place)
I0129 19:51:38.175400 16273 net.cpp:98] Setting up relu2_2
I0129 19:51:38.175403 16273 net.cpp:105] Top shape: 1 128 241 161 (4966528)
I0129 19:51:38.175407 16273 layer_factory.hpp:78] Creating layer conv2_2_relu2_2_0_split
I0129 19:51:38.175411 16273 net.cpp:69] Creating Layer conv2_2_relu2_2_0_split
I0129 19:51:38.175416 16273 net.cpp:396] conv2_2_relu2_2_0_split <- conv2_2
I0129 19:51:38.175421 16273 net.cpp:358] conv2_2_relu2_2_0_split -> conv2_2_relu2_2_0_split_0
I0129 19:51:38.175429 16273 net.cpp:358] conv2_2_relu2_2_0_split -> conv2_2_relu2_2_0_split_1
I0129 19:51:38.175436 16273 net.cpp:98] Setting up conv2_2_relu2_2_0_split
I0129 19:51:38.175441 16273 net.cpp:105] Top shape: 1 128 241 161 (4966528)
I0129 19:51:38.175444 16273 net.cpp:105] Top shape: 1 128 241 161 (4966528)
I0129 19:51:38.175447 16273 layer_factory.hpp:78] Creating layer pool2
I0129 19:51:38.175453 16273 net.cpp:69] Creating Layer pool2
I0129 19:51:38.175457 16273 net.cpp:396] pool2 <- conv2_2_relu2_2_0_split_0
I0129 19:51:38.175463 16273 net.cpp:358] pool2 -> pool2
I0129 19:51:38.175469 16273 net.cpp:98] Setting up pool2
I0129 19:51:38.175474 16273 net.cpp:105] Top shape: 1 128 121 81 (1254528)
I0129 19:51:38.175477 16273 layer_factory.hpp:78] Creating layer conv3_1
I0129 19:51:38.175483 16273 net.cpp:69] Creating Layer conv3_1
I0129 19:51:38.175487 16273 net.cpp:396] conv3_1 <- pool2
I0129 19:51:38.175493 16273 net.cpp:358] conv3_1 -> conv3_1
I0129 19:51:38.175498 16273 net.cpp:98] Setting up conv3_1
I0129 19:51:38.175968 16273 net.cpp:105] Top shape: 1 256 121 81 (2509056)
I0129 19:51:38.175990 16273 layer_factory.hpp:78] Creating layer relu3_1
I0129 19:51:38.175997 16273 net.cpp:69] Creating Layer relu3_1
I0129 19:51:38.176000 16273 net.cpp:396] relu3_1 <- conv3_1
I0129 19:51:38.176007 16273 net.cpp:347] relu3_1 -> conv3_1 (in-place)
I0129 19:51:38.176012 16273 net.cpp:98] Setting up relu3_1
I0129 19:51:38.176017 16273 net.cpp:105] Top shape: 1 256 121 81 (2509056)
I0129 19:51:38.176020 16273 layer_factory.hpp:78] Creating layer conv3_1_relu3_1_0_split
I0129 19:51:38.176024 16273 net.cpp:69] Creating Layer conv3_1_relu3_1_0_split
I0129 19:51:38.176028 16273 net.cpp:396] conv3_1_relu3_1_0_split <- conv3_1
I0129 19:51:38.176034 16273 net.cpp:358] conv3_1_relu3_1_0_split -> conv3_1_relu3_1_0_split_0
I0129 19:51:38.176040 16273 net.cpp:358] conv3_1_relu3_1_0_split -> conv3_1_relu3_1_0_split_1
I0129 19:51:38.176046 16273 net.cpp:98] Setting up conv3_1_relu3_1_0_split
I0129 19:51:38.176051 16273 net.cpp:105] Top shape: 1 256 121 81 (2509056)
I0129 19:51:38.176055 16273 net.cpp:105] Top shape: 1 256 121 81 (2509056)
I0129 19:51:38.176059 16273 layer_factory.hpp:78] Creating layer conv3_2
I0129 19:51:38.176064 16273 net.cpp:69] Creating Layer conv3_2
I0129 19:51:38.176069 16273 net.cpp:396] conv3_2 <- conv3_1_relu3_1_0_split_0
I0129 19:51:38.176074 16273 net.cpp:358] conv3_2 -> conv3_2
I0129 19:51:38.176080 16273 net.cpp:98] Setting up conv3_2
I0129 19:51:38.177119 16273 net.cpp:105] Top shape: 1 256 121 81 (2509056)
I0129 19:51:38.177132 16273 layer_factory.hpp:78] Creating layer conv3_2_conv3_2_0_split
I0129 19:51:38.177139 16273 net.cpp:69] Creating Layer conv3_2_conv3_2_0_split
I0129 19:51:38.177152 16273 net.cpp:396] conv3_2_conv3_2_0_split <- conv3_2
I0129 19:51:38.177160 16273 net.cpp:358] conv3_2_conv3_2_0_split -> conv3_2_conv3_2_0_split_0
I0129 19:51:38.177166 16273 net.cpp:358] conv3_2_conv3_2_0_split -> conv3_2_conv3_2_0_split_1
I0129 19:51:38.177172 16273 net.cpp:98] Setting up conv3_2_conv3_2_0_split
I0129 19:51:38.177177 16273 net.cpp:105] Top shape: 1 256 121 81 (2509056)
I0129 19:51:38.177181 16273 net.cpp:105] Top shape: 1 256 121 81 (2509056)
I0129 19:51:38.177186 16273 layer_factory.hpp:78] Creating layer conv3_3
I0129 19:51:38.177191 16273 net.cpp:69] Creating Layer conv3_3
I0129 19:51:38.177196 16273 net.cpp:396] conv3_3 <- conv3_2_conv3_2_0_split_0
I0129 19:51:38.177201 16273 net.cpp:358] conv3_3 -> conv3_3
I0129 19:51:38.177207 16273 net.cpp:98] Setting up conv3_3
I0129 19:51:38.178136 16273 net.cpp:105] Top shape: 1 256 121 81 (2509056)
I0129 19:51:38.178153 16273 layer_factory.hpp:78] Creating layer relu3_3
I0129 19:51:38.178159 16273 net.cpp:69] Creating Layer relu3_3
I0129 19:51:38.178174 16273 net.cpp:396] relu3_3 <- conv3_3
I0129 19:51:38.178180 16273 net.cpp:347] relu3_3 -> conv3_3 (in-place)
I0129 19:51:38.178187 16273 net.cpp:98] Setting up relu3_3
I0129 19:51:38.178191 16273 net.cpp:105] Top shape: 1 256 121 81 (2509056)
I0129 19:51:38.178195 16273 layer_factory.hpp:78] Creating layer score-conv3_1
I0129 19:51:38.178201 16273 net.cpp:69] Creating Layer score-conv3_1
I0129 19:51:38.178205 16273 net.cpp:396] score-conv3_1 <- conv3_1_relu3_1_0_split_1
I0129 19:51:38.178211 16273 net.cpp:358] score-conv3_1 -> score-conv3_1
I0129 19:51:38.178218 16273 net.cpp:98] Setting up score-conv3_1
I0129 19:51:38.178576 16273 net.cpp:105] Top shape: 1 2 121 81 (19602)
I0129 19:51:38.178589 16273 layer_factory.hpp:78] Creating layer score-conv3_2
I0129 19:51:38.178604 16273 net.cpp:69] Creating Layer score-conv3_2
I0129 19:51:38.178608 16273 net.cpp:396] score-conv3_2 <- conv3_2_conv3_2_0_split_1
I0129 19:51:38.178616 16273 net.cpp:358] score-conv3_2 -> score-conv3_2
I0129 19:51:38.178622 16273 net.cpp:98] Setting up score-conv3_2
I0129 19:51:38.178676 16273 net.cpp:105] Top shape: 1 2 121 81 (19602)
I0129 19:51:38.178689 16273 layer_factory.hpp:78] Creating layer score-conv3_3
I0129 19:51:38.178695 16273 net.cpp:69] Creating Layer score-conv3_3
I0129 19:51:38.178699 16273 net.cpp:396] score-conv3_3 <- conv3_3
I0129 19:51:38.178705 16273 net.cpp:358] score-conv3_3 -> score-conv3_3
I0129 19:51:38.178725 16273 net.cpp:98] Setting up score-conv3_3
I0129 19:51:38.178786 16273 net.cpp:105] Top shape: 1 2 121 81 (19602)
I0129 19:51:38.178794 16273 layer_factory.hpp:78] Creating layer fuse-conv3
I0129 19:51:38.178812 16273 net.cpp:69] Creating Layer fuse-conv3
I0129 19:51:38.178817 16273 net.cpp:396] fuse-conv3 <- score-conv3_1
I0129 19:51:38.178822 16273 net.cpp:396] fuse-conv3 <- score-conv3_2
I0129 19:51:38.178827 16273 net.cpp:396] fuse-conv3 <- score-conv3_3
I0129 19:51:38.178834 16273 net.cpp:358] fuse-conv3 -> score-conv3
I0129 19:51:38.178840 16273 net.cpp:98] Setting up fuse-conv3
I0129 19:51:38.178848 16273 net.cpp:105] Top shape: 1 2 121 81 (19602)
I0129 19:51:38.178853 16273 layer_factory.hpp:78] Creating layer upscore-conv3
I0129 19:51:38.178859 16273 net.cpp:69] Creating Layer upscore-conv3
I0129 19:51:38.178864 16273 net.cpp:396] upscore-conv3 <- score-conv3
I0129 19:51:38.178869 16273 net.cpp:358] upscore-conv3 -> upscore-conv3
I0129 19:51:38.178876 16273 net.cpp:98] Setting up upscore-conv3
I0129 19:51:38.178951 16273 net.cpp:105] Top shape: 1 2 244 164 (80032)
I0129 19:51:38.178961 16273 layer_factory.hpp:78] Creating layer crop-upscore-conv3
I0129 19:51:38.178969 16273 net.cpp:69] Creating Layer crop-upscore-conv3
I0129 19:51:38.178974 16273 net.cpp:396] crop-upscore-conv3 <- upscore-conv3
I0129 19:51:38.178983 16273 net.cpp:396] crop-upscore-conv3 <- pool1_pool1_0_split_1
I0129 19:51:38.178993 16273 net.cpp:358] crop-upscore-conv3 -> upscore-conv3c
I0129 19:51:38.179004 16273 net.cpp:98] Setting up crop-upscore-conv3
I0129 19:51:38.179059 16273 net.cpp:105] Top shape: 1 2 241 161 (77602)
I0129 19:51:38.179069 16273 layer_factory.hpp:78] Creating layer score-conv2_1
I0129 19:51:38.179078 16273 net.cpp:69] Creating Layer score-conv2_1
I0129 19:51:38.179093 16273 net.cpp:396] score-conv2_1 <- conv2_1_relu2_1_0_split_1
I0129 19:51:38.179110 16273 net.cpp:358] score-conv2_1 -> score-conv2_1
I0129 19:51:38.179121 16273 net.cpp:98] Setting up score-conv2_1
I0129 19:51:38.179206 16273 net.cpp:105] Top shape: 1 2 241 161 (77602)
I0129 19:51:38.179225 16273 layer_factory.hpp:78] Creating layer score-conv2_2
I0129 19:51:38.179241 16273 net.cpp:69] Creating Layer score-conv2_2
I0129 19:51:38.179245 16273 net.cpp:396] score-conv2_2 <- conv2_2_relu2_2_0_split_1
I0129 19:51:38.179253 16273 net.cpp:358] score-conv2_2 -> score-conv2_2
I0129 19:51:38.179260 16273 net.cpp:98] Setting up score-conv2_2
I0129 19:51:38.179345 16273 net.cpp:105] Top shape: 1 2 241 161 (77602)
I0129 19:51:38.179354 16273 layer_factory.hpp:78] Creating layer fuse-conv2,3
I0129 19:51:38.179363 16273 net.cpp:69] Creating Layer fuse-conv2,3
I0129 19:51:38.179376 16273 net.cpp:396] fuse-conv2,3 <- score-conv2_1
I0129 19:51:38.179381 16273 net.cpp:396] fuse-conv2,3 <- score-conv2_2
I0129 19:51:38.179386 16273 net.cpp:396] fuse-conv2,3 <- upscore-conv3c
I0129 19:51:38.179394 16273 net.cpp:358] fuse-conv2,3 -> score-conv2,3
I0129 19:51:38.179400 16273 net.cpp:98] Setting up fuse-conv2,3
I0129 19:51:38.179405 16273 net.cpp:105] Top shape: 1 2 241 161 (77602)
I0129 19:51:38.179409 16273 layer_factory.hpp:78] Creating layer upscore-conv2,3
I0129 19:51:38.179414 16273 net.cpp:69] Creating Layer upscore-conv2,3
I0129 19:51:38.179419 16273 net.cpp:396] upscore-conv2,3 <- score-conv2,3
I0129 19:51:38.179425 16273 net.cpp:358] upscore-conv2,3 -> upscore-conv2,3
I0129 19:51:38.179431 16273 net.cpp:98] Setting up upscore-conv2,3
I0129 19:51:38.179672 16273 net.cpp:105] Top shape: 1 2 484 324 (313632)
I0129 19:51:38.179682 16273 layer_factory.hpp:78] Creating layer crop-upscore-conv2,3
I0129 19:51:38.179688 16273 net.cpp:69] Creating Layer crop-upscore-conv2,3
I0129 19:51:38.179692 16273 net.cpp:396] crop-upscore-conv2,3 <- upscore-conv2,3
I0129 19:51:38.179698 16273 net.cpp:396] crop-upscore-conv2,3 <- conv1_1_relu1_1_0_split_1
I0129 19:51:38.179703 16273 net.cpp:358] crop-upscore-conv2,3 -> upscore-conv2,3c
I0129 19:51:38.179709 16273 net.cpp:98] Setting up crop-upscore-conv2,3
I0129 19:51:38.179736 16273 net.cpp:105] Top shape: 1 2 481 321 (308802)
I0129 19:51:38.179751 16273 layer_factory.hpp:78] Creating layer score-conv1_1
I0129 19:51:38.179757 16273 net.cpp:69] Creating Layer score-conv1_1
I0129 19:51:38.179761 16273 net.cpp:396] score-conv1_1 <- conv1_1_relu1_1_0_split_2
I0129 19:51:38.179769 16273 net.cpp:358] score-conv1_1 -> score-conv1_1
I0129 19:51:38.179774 16273 net.cpp:98] Setting up score-conv1_1
I0129 19:51:38.180009 16273 net.cpp:105] Top shape: 1 2 481 321 (308802)
I0129 19:51:38.180027 16273 layer_factory.hpp:78] Creating layer score-conv1_2
I0129 19:51:38.180037 16273 net.cpp:69] Creating Layer score-conv1_2
I0129 19:51:38.180042 16273 net.cpp:396] score-conv1_2 <- conv1_2_relu1_2_0_split_1
I0129 19:51:38.180048 16273 net.cpp:358] score-conv1_2 -> score-conv1_2
I0129 19:51:38.180054 16273 net.cpp:98] Setting up score-conv1_2
I0129 19:51:38.180289 16273 net.cpp:105] Top shape: 1 2 481 321 (308802)
I0129 19:51:38.180299 16273 layer_factory.hpp:78] Creating layer fuse-conv1,2,3
I0129 19:51:38.180305 16273 net.cpp:69] Creating Layer fuse-conv1,2,3
I0129 19:51:38.180310 16273 net.cpp:396] fuse-conv1,2,3 <- score-conv1_1
I0129 19:51:38.180315 16273 net.cpp:396] fuse-conv1,2,3 <- score-conv1_2
I0129 19:51:38.180320 16273 net.cpp:396] fuse-conv1,2,3 <- upscore-conv2,3c
I0129 19:51:38.180325 16273 net.cpp:358] fuse-conv1,2,3 -> score
I0129 19:51:38.180331 16273 net.cpp:98] Setting up fuse-conv1,2,3
I0129 19:51:38.180336 16273 net.cpp:105] Top shape: 1 2 481 321 (308802)
I0129 19:51:38.180341 16273 layer_factory.hpp:78] Creating layer score_fuse-conv1,2,3_0_split
I0129 19:51:38.180346 16273 net.cpp:69] Creating Layer score_fuse-conv1,2,3_0_split
I0129 19:51:38.180349 16273 net.cpp:396] score_fuse-conv1,2,3_0_split <- score
I0129 19:51:38.180359 16273 net.cpp:358] score_fuse-conv1,2,3_0_split -> score_fuse-conv1,2,3_0_split_0
I0129 19:51:38.180371 16273 net.cpp:358] score_fuse-conv1,2,3_0_split -> score_fuse-conv1,2,3_0_split_1
I0129 19:51:38.180383 16273 net.cpp:98] Setting up score_fuse-conv1,2,3_0_split
I0129 19:51:38.180390 16273 net.cpp:105] Top shape: 1 2 481 321 (308802)
I0129 19:51:38.180394 16273 net.cpp:105] Top shape: 1 2 481 321 (308802)
I0129 19:51:38.180398 16273 layer_factory.hpp:78] Creating layer loss
I0129 19:51:38.180408 16273 net.cpp:69] Creating Layer loss
I0129 19:51:38.180413 16273 net.cpp:396] loss <- score_fuse-conv1,2,3_0_split_0
I0129 19:51:38.180418 16273 net.cpp:396] loss <- label
I0129 19:51:38.180423 16273 net.cpp:358] loss -> loss
I0129 19:51:38.180431 16273 net.cpp:98] Setting up loss
I0129 19:51:38.180439 16273 layer_factory.hpp:78] Creating layer loss
I0129 19:51:38.180876 16273 net.cpp:105] Top shape: 1 1 1 1 (1)
I0129 19:51:38.180886 16273 net.cpp:111]     with loss weight 1
I0129 19:51:38.180910 16273 layer_factory.hpp:78] Creating layer prob
I0129 19:51:38.180915 16273 net.cpp:69] Creating Layer prob
I0129 19:51:38.180920 16273 net.cpp:396] prob <- score_fuse-conv1,2,3_0_split_1
I0129 19:51:38.180925 16273 net.cpp:358] prob -> prob
I0129 19:51:38.180932 16273 net.cpp:98] Setting up prob
I0129 19:51:38.180937 16273 net.cpp:105] Top shape: 1 2 481 321 (308802)
I0129 19:51:38.180940 16273 layer_factory.hpp:78] Creating layer silence-prob
I0129 19:51:38.180950 16273 net.cpp:69] Creating Layer silence-prob
I0129 19:51:38.180958 16273 net.cpp:396] silence-prob <- prob
I0129 19:51:38.180968 16273 net.cpp:98] Setting up silence-prob
I0129 19:51:38.180974 16273 net.cpp:174] silence-prob does not need backward computation.
I0129 19:51:38.180979 16273 net.cpp:174] prob does not need backward computation.
…
I0129 19:51:38.182133 16273 net.cpp:39] Initializing net from parameters: 
name: "vgg-jet0-denoise"
layers {
  top: "data"
  name: "data"
  type: DATA
  data_param {
    source: "/home/shelhamer/dpb/data/bsd500/bsd500-val-multi-lmdb"
    batch_size: 1
    backend: LMDB
  }
  include {
    phase: TEST
  }
  transform_param {
    mean_value: 109.9
    mean_value: 112.2
    mean_value: 93.8
  }
}
layers {
  top: "label"
  name: "label"
  type: DATA
  data_param {
    source: "/home/shelhamer/dpb/data/bsd500/bsd500-val-gt-denoise-lmdb"
    batch_size: 1
    backend: LMDB
  }
  include {
    phase: TEST
  }
}
layers {
  bottom: "data"
  top: "conv1_1"
  name: "conv1_1"
  type: CONVOLUTION
  blobs_lr: 0
  blobs_lr: 0
  weight_decay: 1
  weight_decay: 0
  convolution_param {
    num_output: 64
    pad: 1
    kernel_size: 3
    engine: CAFFE
  }
}
layers {
  bottom: "conv1_1"
  top: "conv1_1"
  name: "relu1_1"
  type: RELU
}
layers {
  bottom: "conv1_1"
  top: "conv1_2"
  name: "conv1_2"
  type: CONVOLUTION
  blobs_lr: 0
  blobs_lr: 0
  weight_decay: 1
  weight_decay: 0
  convolution_param {
    num_output: 64
    pad: 1
    kernel_size: 3
    engine: CAFFE
  }
}
layers {
  bottom: "conv1_2"
  top: "conv1_2"
  name: "relu1_2"
  type: RELU
}
layers {
  bottom: "conv1_2"
  top: "pool1"
  name: "pool1"
  type: POOLING
  pooling_param {
    pool: MAX
    kernel_size: 2
    stride: 2
  }
}
layers {
  bottom: "pool1"
  top: "conv2_1"
  name: "conv2_1"
  type: CONVOLUTION
  blobs_lr: 0
  blobs_lr: 0
  weight_decay: 1
  weight_decay: 0
  convolution_param {
    num_output: 128
    pad: 1
    kernel_size: 3
    engine: CAFFE
  }
}
layers {
  bottom: "conv2_1"
  top: "conv2_1"
  name: "relu2_1"
  type: RELU
}
layers {
  bottom: "conv2_1"
  top: "conv2_2"
  name: "conv2_2"
  type: CONVOLUTION
  blobs_lr: 0
  blobs_lr: 0
  weight_decay: 1
  weight_decay: 0
  convolution_param {
    num_output: 128
    pad: 1
    kernel_size: 3
    engine: CAFFE
  }
}
layers {
  bottom: "conv2_2"
  top: "conv2_2"
  name: "relu2_2"
  type: RELU
}
layers {
  bottom: "conv2_2"
  top: "pool2"
  name: "pool2"
  type: POOLING
  pooling_param {
    pool: MAX
    kernel_size: 2
    stride: 2
  }
}
layers {
  bottom: "pool2"
  top: "conv3_1"
  name: "conv3_1"
  type: CONVOLUTION
  blobs_lr: 0
  blobs_lr: 0
  weight_decay: 1
  weight_decay: 0
  convolution_param {
    num_output: 256
    pad: 1
    kernel_size: 3
    engine: CAFFE
  }
}
layers {
  bottom: "conv3_1"
  top: "conv3_1"
  name: "relu3_1"
  type: RELU
}
layers {
  bottom: "conv3_1"
  top: "conv3_2"
  name: "conv3_2"
  type: CONVOLUTION
  blobs_lr: 0
  blobs_lr: 0
  weight_decay: 1
  weight_decay: 0
  convolution_param {
    num_output: 256
    pad: 1
    kernel_size: 3
    engine: CAFFE
  }
}
layers {
  bottom: "conv3_2"
  top: "conv3_3"
  name: "conv3_3"
  type: CONVOLUTION
  blobs_lr: 0
  blobs_lr: 0
  weight_decay: 1
  weight_decay: 0
  convolution_param {
    num_output: 256
    pad: 1
    kernel_size: 3
    engine: CAFFE
  }
}
layers {
  bottom: "conv3_3"
  top: "conv3_3"
  name: "relu3_3"
  type: RELU
}
layers {
  bottom: "conv3_1"
  top: "score-conv3_1"
  name: "score-conv3_1"
  type: CONVOLUTION
  blobs_lr: 1
  blobs_lr: 2
  weight_decay: 1
  weight_decay: 0
  convolution_param {
    num_output: 2
    pad: 1
    kernel_size: 3
    weight_filler {
      type: "xavier"
    }
    engine: CAFFE
  }
}
layers {
  bottom: "conv3_2"
  top: "score-conv3_2"
  name: "score-conv3_2"
  type: CONVOLUTION
  blobs_lr: 1
  blobs_lr: 2
  weight_decay: 1
  weight_decay: 0
  convolution_param {
    num_output: 2
    pad: 1
    kernel_size: 3
    weight_filler {
      type: "xavier"
    }
    engine: CAFFE
  }
}
layers {
  bottom: "conv3_3"
  top: "score-conv3_3"
  name: "score-conv3_3"
  type: CONVOLUTION
  blobs_lr: 1
  blobs_lr: 2
  weight_decay: 1
  weight_decay: 0
  convolution_param {
    num_output: 2
    pad: 1
    kernel_size: 3
    weight_filler {
      type: "xavier"
    }
    engine: CAFFE
  }
}
layers {
  bottom: "score-conv3_1"
  bottom: "score-conv3_2"
  bottom: "score-conv3_3"
  top: "score-conv3"
  name: "fuse-conv3"
  type: ELTWISE
  eltwise_param {
    operation: SUM
  }
}
layers {
  bottom: "score-conv3"
  top: "upscore-conv3"
  name: "upscore-conv3"
  type: DECONVOLUTION
  blobs_lr: 0
  blobs_lr: 0
  convolution_param {
    num_output: 2
    kernel_size: 4
    stride: 2
  }
}
layers {
  bottom: "upscore-conv3"
  bottom: "pool1"
  top: "upscore-conv3c"
  name: "crop-upscore-conv3"
  type: CROP
}
layers {
  bottom: "conv2_1"
  top: "score-conv2_1"
  name: "score-conv2_1"
  type: CONVOLUTION
  blobs_lr: 1
  blobs_lr: 2
  weight_decay: 1
  weight_decay: 0
  convolution_param {
    num_output: 2
    pad: 1
    kernel_size: 3
    weight_filler {
      type: "xavier"
    }
    engine: CAFFE
  }
}
layers {
  bottom: "conv2_2"
  top: "score-conv2_2"
  name: "score-conv2_2"
  type: CONVOLUTION
  blobs_lr: 1
  blobs_lr: 2
  weight_decay: 1
  weight_decay: 0
  convolution_param {
    num_output: 2
    pad: 1
    kernel_size: 3
    weight_filler {
      type: "xavier"
    }
    engine: CAFFE
  }
}
layers {
  bottom: "score-conv2_1"
  bottom: "score-conv2_2"
  bottom: "upscore-conv3c"
  top: "score-conv2,3"
  name: "fuse-conv2,3"
  type: ELTWISE
  eltwise_param {
    operation: SUM
  }
}
layers {
  bottom: "score-conv2,3"
  top: "upscore-conv2,3"
  name: "upscore-conv2,3"
  type: DECONVOLUTION
  blobs_lr: 0
  blobs_lr: 0
  convolution_param {
    num_output: 2
    kernel_size: 4
    stride: 2
  }
}
layers {
  bottom: "upscore-conv2,3"
  bottom: "conv1_1"
  top: "upscore-conv2,3c"
  name: "crop-upscore-conv2,3"
  type: CROP
}
layers {
  bottom: "conv1_1"
  top: "score-conv1_1"
  name: "score-conv1_1"
  type: CONVOLUTION
  blobs_lr: 1
  blobs_lr: 2
  weight_decay: 1
  weight_decay: 0
  convolution_param {
    num_output: 2
    pad: 1
    kernel_size: 3
    weight_filler {
      type: "xavier"
    }
    engine: CAFFE
  }
}
layers {
  bottom: "conv1_2"
  top: "score-conv1_2"
  name: "score-conv1_2"
  type: CONVOLUTION
  blobs_lr: 1
  blobs_lr: 2
  weight_decay: 1
  weight_decay: 0
  convolution_param {
    num_output: 2
    pad: 1
    kernel_size: 3
    weight_filler {
      type: "xavier"
    }
    engine: CAFFE
  }
}
layers {
  bottom: "score-conv1_1"
  bottom: "score-conv1_2"
  bottom: "upscore-conv2,3c"
  top: "score"
  name: "fuse-conv1,2,3"
  type: ELTWISE
  eltwise_param {
    operation: SUM
  }
}
layers {
  bottom: "score"
  bottom: "label"
  top: "loss"
  name: "loss"
  type: SOFTMAX_LOSS
  loss_param {
    ignore_label: 255
    normalize: false
  }
}
layers {
  bottom: "score"
  top: "prob"
  name: "prob"
  type: SOFTMAX
}
layers {
  bottom: "prob"
  name: "silence-prob"
  type: SILENCE
}
state {
  phase: TEST
}
I0129 19:51:38.182293 16273 layer_factory.hpp:78] Creating layer data
I0129 19:51:38.182306 16273 net.cpp:69] Creating Layer data
I0129 19:51:38.182314 16273 net.cpp:358] data -> data
I0129 19:51:38.182327 16273 net.cpp:98] Setting up data
I0129 19:51:38.182334 16273 data_layer.cpp:32] Opening dataset /home/shelhamer/dpb/data/bsd500/bsd500-val-multi-lmdb
I0129 19:51:38.182780 16273 data_layer.cpp:71] output data size: 1,3,321,481
I0129 19:51:38.183363 16273 net.cpp:105] Top shape: 1 3 321 481 (463203)
I0129 19:51:38.183372 16273 layer_factory.hpp:78] Creating layer label
I0129 19:51:38.183380 16273 net.cpp:69] Creating Layer label
I0129 19:51:38.183398 16273 net.cpp:358] label -> label
I0129 19:51:38.183406 16273 net.cpp:98] Setting up label
I0129 19:51:38.183410 16273 data_layer.cpp:32] Opening dataset /home/shelhamer/dpb/data/bsd500/bsd500-val-gt-denoise-lmdb
I0129 19:51:38.183543 16273 data_layer.cpp:71] output data size: 1,1,321,481
I0129 19:51:38.183747 16273 net.cpp:105] Top shape: 1 1 321 481 (154401)
I0129 19:51:38.183753 16273 layer_factory.hpp:78] Creating layer conv1_1
I0129 19:51:38.183761 16273 net.cpp:69] Creating Layer conv1_1
I0129 19:51:38.183765 16273 net.cpp:396] conv1_1 <- data
I0129 19:51:38.183773 16273 net.cpp:358] conv1_1 -> conv1_1
I0129 19:51:38.183779 16273 net.cpp:98] Setting up conv1_1
I0129 19:51:38.184026 16273 net.cpp:105] Top shape: 1 64 321 481 (9881664)
I0129 19:51:38.184041 16273 layer_factory.hpp:78] Creating layer relu1_1
I0129 19:51:38.184047 16273 net.cpp:69] Creating Layer relu1_1
I0129 19:51:38.184052 16273 net.cpp:396] relu1_1 <- conv1_1
I0129 19:51:38.184057 16273 net.cpp:347] relu1_1 -> conv1_1 (in-place)
I0129 19:51:38.184063 16273 net.cpp:98] Setting up relu1_1
I0129 19:51:38.184067 16273 net.cpp:105] Top shape: 1 64 321 481 (9881664)
I0129 19:51:38.184072 16273 layer_factory.hpp:78] Creating layer conv1_1_relu1_1_0_split
I0129 19:51:38.184078 16273 net.cpp:69] Creating Layer conv1_1_relu1_1_0_split
I0129 19:51:38.184098 16273 net.cpp:396] conv1_1_relu1_1_0_split <- conv1_1
I0129 19:51:38.184105 16273 net.cpp:358] conv1_1_relu1_1_0_split -> conv1_1_relu1_1_0_split_0
I0129 19:51:38.184113 16273 net.cpp:358] conv1_1_relu1_1_0_split -> conv1_1_relu1_1_0_split_1
I0129 19:51:38.184119 16273 net.cpp:358] conv1_1_relu1_1_0_split -> conv1_1_relu1_1_0_split_2
I0129 19:51:38.184125 16273 net.cpp:98] Setting up conv1_1_relu1_1_0_split
I0129 19:51:38.184130 16273 net.cpp:105] Top shape: 1 64 321 481 (9881664)
I0129 19:51:38.184135 16273 net.cpp:105] Top shape: 1 64 321 481 (9881664)
I0129 19:51:38.184139 16273 net.cpp:105] Top shape: 1 64 321 481 (9881664)
I0129 19:51:38.184144 16273 layer_factory.hpp:78] Creating layer conv1_2
I0129 19:51:38.184154 16273 net.cpp:69] Creating Layer conv1_2
I0129 19:51:38.184159 16273 net.cpp:396] conv1_2 <- conv1_1_relu1_1_0_split_0
I0129 19:51:38.184170 16273 net.cpp:358] conv1_2 -> conv1_2
I0129 19:51:38.184182 16273 net.cpp:98] Setting up conv1_2
I0129 19:51:38.184427 16273 net.cpp:105] Top shape: 1 64 321 481 (9881664)
I0129 19:51:38.184439 16273 layer_factory.hpp:78] Creating layer relu1_2
I0129 19:51:38.184445 16273 net.cpp:69] Creating Layer relu1_2
I0129 19:51:38.184449 16273 net.cpp:396] relu1_2 <- conv1_2
I0129 19:51:38.184455 16273 net.cpp:347] relu1_2 -> conv1_2 (in-place)
I0129 19:51:38.184461 16273 net.cpp:98] Setting up relu1_2
I0129 19:51:38.184465 16273 net.cpp:105] Top shape: 1 64 321 481 (9881664)
I0129 19:51:38.184469 16273 layer_factory.hpp:78] Creating layer conv1_2_relu1_2_0_split
I0129 19:51:38.184474 16273 net.cpp:69] Creating Layer conv1_2_relu1_2_0_split
I0129 19:51:38.184478 16273 net.cpp:396] conv1_2_relu1_2_0_split <- conv1_2
I0129 19:51:38.184484 16273 net.cpp:358] conv1_2_relu1_2_0_split -> conv1_2_relu1_2_0_split_0
I0129 19:51:38.184490 16273 net.cpp:358] conv1_2_relu1_2_0_split -> conv1_2_relu1_2_0_split_1
I0129 19:51:38.184497 16273 net.cpp:98] Setting up conv1_2_relu1_2_0_split
I0129 19:51:38.184502 16273 net.cpp:105] Top shape: 1 64 321 481 (9881664)
I0129 19:51:38.184506 16273 net.cpp:105] Top shape: 1 64 321 481 (9881664)
I0129 19:51:38.184510 16273 layer_factory.hpp:78] Creating layer pool1
I0129 19:51:38.184516 16273 net.cpp:69] Creating Layer pool1
I0129 19:51:38.184520 16273 net.cpp:396] pool1 <- conv1_2_relu1_2_0_split_0
I0129 19:51:38.184526 16273 net.cpp:358] pool1 -> pool1
I0129 19:51:38.184532 16273 net.cpp:98] Setting up pool1
I0129 19:51:38.184538 16273 net.cpp:105] Top shape: 1 64 161 241 (2483264)
I0129 19:51:38.184542 16273 layer_factory.hpp:78] Creating layer pool1_pool1_0_split
I0129 19:51:38.184547 16273 net.cpp:69] Creating Layer pool1_pool1_0_split
I0129 19:51:38.184551 16273 net.cpp:396] pool1_pool1_0_split <- pool1
I0129 19:51:38.184556 16273 net.cpp:358] pool1_pool1_0_split -> pool1_pool1_0_split_0
I0129 19:51:38.184562 16273 net.cpp:358] pool1_pool1_0_split -> pool1_pool1_0_split_1
I0129 19:51:38.184568 16273 net.cpp:98] Setting up pool1_pool1_0_split
I0129 19:51:38.184572 16273 net.cpp:105] Top shape: 1 64 161 241 (2483264)
I0129 19:51:38.184577 16273 net.cpp:105] Top shape: 1 64 161 241 (2483264)
I0129 19:51:38.184581 16273 layer_factory.hpp:78] Creating layer conv2_1
I0129 19:51:38.184587 16273 net.cpp:69] Creating Layer conv2_1
I0129 19:51:38.184590 16273 net.cpp:396] conv2_1 <- pool1_pool1_0_split_0
I0129 19:51:38.184597 16273 net.cpp:358] conv2_1 -> conv2_1
I0129 19:51:38.184602 16273 net.cpp:98] Setting up conv2_1
I0129 19:51:38.184780 16273 net.cpp:105] Top shape: 1 128 161 241 (4966528)
I0129 19:51:38.184792 16273 layer_factory.hpp:78] Creating layer relu2_1
I0129 19:51:38.184798 16273 net.cpp:69] Creating Layer relu2_1
I0129 19:51:38.184803 16273 net.cpp:396] relu2_1 <- conv2_1
I0129 19:51:38.184808 16273 net.cpp:347] relu2_1 -> conv2_1 (in-place)
I0129 19:51:38.184813 16273 net.cpp:98] Setting up relu2_1
I0129 19:51:38.184818 16273 net.cpp:105] Top shape: 1 128 161 241 (4966528)
I0129 19:51:38.184821 16273 layer_factory.hpp:78] Creating layer conv2_1_relu2_1_0_split
I0129 19:51:38.184834 16273 net.cpp:69] Creating Layer conv2_1_relu2_1_0_split
I0129 19:51:38.184839 16273 net.cpp:396] conv2_1_relu2_1_0_split <- conv2_1
I0129 19:51:38.184844 16273 net.cpp:358] conv2_1_relu2_1_0_split -> conv2_1_relu2_1_0_split_0
I0129 19:51:38.184851 16273 net.cpp:358] conv2_1_relu2_1_0_split -> conv2_1_relu2_1_0_split_1
I0129 19:51:38.184857 16273 net.cpp:98] Setting up conv2_1_relu2_1_0_split
I0129 19:51:38.184861 16273 net.cpp:105] Top shape: 1 128 161 241 (4966528)
I0129 19:51:38.184865 16273 net.cpp:105] Top shape: 1 128 161 241 (4966528)
I0129 19:51:38.184870 16273 layer_factory.hpp:78] Creating layer conv2_2
I0129 19:51:38.184875 16273 net.cpp:69] Creating Layer conv2_2
I0129 19:51:38.184878 16273 net.cpp:396] conv2_2 <- conv2_1_relu2_1_0_split_0
I0129 19:51:38.184885 16273 net.cpp:358] conv2_2 -> conv2_2
I0129 19:51:38.184890 16273 net.cpp:98] Setting up conv2_2
I0129 19:51:38.185148 16273 net.cpp:105] Top shape: 1 128 161 241 (4966528)
I0129 19:51:38.185156 16273 layer_factory.hpp:78] Creating layer relu2_2
I0129 19:51:38.185163 16273 net.cpp:69] Creating Layer relu2_2
I0129 19:51:38.185166 16273 net.cpp:396] relu2_2 <- conv2_2
I0129 19:51:38.185171 16273 net.cpp:347] relu2_2 -> conv2_2 (in-place)
I0129 19:51:38.185178 16273 net.cpp:98] Setting up relu2_2
I0129 19:51:38.185181 16273 net.cpp:105] Top shape: 1 128 161 241 (4966528)
I0129 19:51:38.185184 16273 layer_factory.hpp:78] Creating layer conv2_2_relu2_2_0_split
I0129 19:51:38.185189 16273 net.cpp:69] Creating Layer conv2_2_relu2_2_0_split
I0129 19:51:38.185194 16273 net.cpp:396] conv2_2_relu2_2_0_split <- conv2_2
I0129 19:51:38.185199 16273 net.cpp:358] conv2_2_relu2_2_0_split -> conv2_2_relu2_2_0_split_0
I0129 19:51:38.185206 16273 net.cpp:358] conv2_2_relu2_2_0_split -> conv2_2_relu2_2_0_split_1
I0129 19:51:38.185212 16273 net.cpp:98] Setting up conv2_2_relu2_2_0_split
I0129 19:51:38.185216 16273 net.cpp:105] Top shape: 1 128 161 241 (4966528)
I0129 19:51:38.185221 16273 net.cpp:105] Top shape: 1 128 161 241 (4966528)
I0129 19:51:38.185227 16273 layer_factory.hpp:78] Creating layer pool2
I0129 19:51:38.185238 16273 net.cpp:69] Creating Layer pool2
I0129 19:51:38.185246 16273 net.cpp:396] pool2 <- conv2_2_relu2_2_0_split_0
I0129 19:51:38.185257 16273 net.cpp:358] pool2 -> pool2
I0129 19:51:38.185266 16273 net.cpp:98] Setting up pool2
I0129 19:51:38.185271 16273 net.cpp:105] Top shape: 1 128 81 121 (1254528)
I0129 19:51:38.185274 16273 layer_factory.hpp:78] Creating layer conv3_1
I0129 19:51:38.185281 16273 net.cpp:69] Creating Layer conv3_1
I0129 19:51:38.185284 16273 net.cpp:396] conv3_1 <- pool2
I0129 19:51:38.185291 16273 net.cpp:358] conv3_1 -> conv3_1
I0129 19:51:38.185297 16273 net.cpp:98] Setting up conv3_1
I0129 19:51:38.185698 16273 net.cpp:105] Top shape: 1 256 81 121 (2509056)
I0129 19:51:38.185709 16273 layer_factory.hpp:78] Creating layer relu3_1
I0129 19:51:38.185715 16273 net.cpp:69] Creating Layer relu3_1
I0129 19:51:38.185719 16273 net.cpp:396] relu3_1 <- conv3_1
I0129 19:51:38.185725 16273 net.cpp:347] relu3_1 -> conv3_1 (in-place)
I0129 19:51:38.185730 16273 net.cpp:98] Setting up relu3_1
I0129 19:51:38.185735 16273 net.cpp:105] Top shape: 1 256 81 121 (2509056)
I0129 19:51:38.185739 16273 layer_factory.hpp:78] Creating layer conv3_1_relu3_1_0_split
I0129 19:51:38.185744 16273 net.cpp:69] Creating Layer conv3_1_relu3_1_0_split
I0129 19:51:38.185747 16273 net.cpp:396] conv3_1_relu3_1_0_split <- conv3_1
I0129 19:51:38.185752 16273 net.cpp:358] conv3_1_relu3_1_0_split -> conv3_1_relu3_1_0_split_0
I0129 19:51:38.185758 16273 net.cpp:358] conv3_1_relu3_1_0_split -> conv3_1_relu3_1_0_split_1
I0129 19:51:38.185765 16273 net.cpp:98] Setting up conv3_1_relu3_1_0_split
I0129 19:51:38.185770 16273 net.cpp:105] Top shape: 1 256 81 121 (2509056)
I0129 19:51:38.185773 16273 net.cpp:105] Top shape: 1 256 81 121 (2509056)
I0129 19:51:38.185776 16273 layer_factory.hpp:78] Creating layer conv3_2
I0129 19:51:38.185781 16273 net.cpp:69] Creating Layer conv3_2
I0129 19:51:38.185786 16273 net.cpp:396] conv3_2 <- conv3_1_relu3_1_0_split_0
I0129 19:51:38.185801 16273 net.cpp:358] conv3_2 -> conv3_2
I0129 19:51:38.185807 16273 net.cpp:98] Setting up conv3_2
I0129 19:51:38.186614 16273 net.cpp:105] Top shape: 1 256 81 121 (2509056)
I0129 19:51:38.186635 16273 layer_factory.hpp:78] Creating layer conv3_2_conv3_2_0_split
I0129 19:51:38.186640 16273 net.cpp:69] Creating Layer conv3_2_conv3_2_0_split
I0129 19:51:38.186645 16273 net.cpp:396] conv3_2_conv3_2_0_split <- conv3_2
I0129 19:51:38.186651 16273 net.cpp:358] conv3_2_conv3_2_0_split -> conv3_2_conv3_2_0_split_0
I0129 19:51:38.186657 16273 net.cpp:358] conv3_2_conv3_2_0_split -> conv3_2_conv3_2_0_split_1
I0129 19:51:38.186663 16273 net.cpp:98] Setting up conv3_2_conv3_2_0_split
I0129 19:51:38.186668 16273 net.cpp:105] Top shape: 1 256 81 121 (2509056)
I0129 19:51:38.186672 16273 net.cpp:105] Top shape: 1 256 81 121 (2509056)
I0129 19:51:38.186676 16273 layer_factory.hpp:78] Creating layer conv3_3
I0129 19:51:38.186684 16273 net.cpp:69] Creating Layer conv3_3
I0129 19:51:38.186691 16273 net.cpp:396] conv3_3 <- conv3_2_conv3_2_0_split_0
I0129 19:51:38.186702 16273 net.cpp:358] conv3_3 -> conv3_3
I0129 19:51:38.186712 16273 net.cpp:98] Setting up conv3_3
I0129 19:51:38.187789 16273 net.cpp:105] Top shape: 1 256 81 121 (2509056)
I0129 19:51:38.187813 16273 layer_factory.hpp:78] Creating layer relu3_3
I0129 19:51:38.187821 16273 net.cpp:69] Creating Layer relu3_3
I0129 19:51:38.187826 16273 net.cpp:396] relu3_3 <- conv3_3
I0129 19:51:38.187834 16273 net.cpp:347] relu3_3 -> conv3_3 (in-place)
I0129 19:51:38.187840 16273 net.cpp:98] Setting up relu3_3
I0129 19:51:38.187845 16273 net.cpp:105] Top shape: 1 256 81 121 (2509056)
I0129 19:51:38.187849 16273 layer_factory.hpp:78] Creating layer score-conv3_1
I0129 19:51:38.187855 16273 net.cpp:69] Creating Layer score-conv3_1
I0129 19:51:38.187860 16273 net.cpp:396] score-conv3_1 <- conv3_1_relu3_1_0_split_1
I0129 19:51:38.187866 16273 net.cpp:358] score-conv3_1 -> score-conv3_1
I0129 19:51:38.187872 16273 net.cpp:98] Setting up score-conv3_1
I0129 19:51:38.187927 16273 net.cpp:105] Top shape: 1 2 81 121 (19602)
I0129 19:51:38.187939 16273 layer_factory.hpp:78] Creating layer score-conv3_2
I0129 19:51:38.187949 16273 net.cpp:69] Creating Layer score-conv3_2
I0129 19:51:38.187957 16273 net.cpp:396] score-conv3_2 <- conv3_2_conv3_2_0_split_1
I0129 19:51:38.187969 16273 net.cpp:358] score-conv3_2 -> score-conv3_2
I0129 19:51:38.187979 16273 net.cpp:98] Setting up score-conv3_2
I0129 19:51:38.188038 16273 net.cpp:105] Top shape: 1 2 81 121 (19602)
I0129 19:51:38.188051 16273 layer_factory.hpp:78] Creating layer score-conv3_3
I0129 19:51:38.188060 16273 net.cpp:69] Creating Layer score-conv3_3
I0129 19:51:38.188063 16273 net.cpp:396] score-conv3_3 <- conv3_3
I0129 19:51:38.188071 16273 net.cpp:358] score-conv3_3 -> score-conv3_3
I0129 19:51:38.188077 16273 net.cpp:98] Setting up score-conv3_3
I0129 19:51:38.188129 16273 net.cpp:105] Top shape: 1 2 81 121 (19602)
I0129 19:51:38.188137 16273 layer_factory.hpp:78] Creating layer fuse-conv3
I0129 19:51:38.188144 16273 net.cpp:69] Creating Layer fuse-conv3
I0129 19:51:38.188148 16273 net.cpp:396] fuse-conv3 <- score-conv3_1
I0129 19:51:38.188153 16273 net.cpp:396] fuse-conv3 <- score-conv3_2
I0129 19:51:38.188158 16273 net.cpp:396] fuse-conv3 <- score-conv3_3
I0129 19:51:38.188163 16273 net.cpp:358] fuse-conv3 -> score-conv3
I0129 19:51:38.188169 16273 net.cpp:98] Setting up fuse-conv3
I0129 19:51:38.188175 16273 net.cpp:105] Top shape: 1 2 81 121 (19602)
I0129 19:51:38.188179 16273 layer_factory.hpp:78] Creating layer upscore-conv3
I0129 19:51:38.188185 16273 net.cpp:69] Creating Layer upscore-conv3
I0129 19:51:38.188189 16273 net.cpp:396] upscore-conv3 <- score-conv3
I0129 19:51:38.188197 16273 net.cpp:358] upscore-conv3 -> upscore-conv3
I0129 19:51:38.188204 16273 net.cpp:98] Setting up upscore-conv3
I0129 19:51:38.188277 16273 net.cpp:105] Top shape: 1 2 164 244 (80032)
I0129 19:51:38.188287 16273 layer_factory.hpp:78] Creating layer crop-upscore-conv3
I0129 19:51:38.188292 16273 net.cpp:69] Creating Layer crop-upscore-conv3
I0129 19:51:38.188313 16273 net.cpp:396] crop-upscore-conv3 <- upscore-conv3
I0129 19:51:38.188318 16273 net.cpp:396] crop-upscore-conv3 <- pool1_pool1_0_split_1
I0129 19:51:38.188324 16273 net.cpp:358] crop-upscore-conv3 -> upscore-conv3c
I0129 19:51:38.188330 16273 net.cpp:98] Setting up crop-upscore-conv3
I0129 19:51:38.188365 16273 net.cpp:105] Top shape: 1 2 161 241 (77602)
I0129 19:51:38.188371 16273 layer_factory.hpp:78] Creating layer score-conv2_1
I0129 19:51:38.188379 16273 net.cpp:69] Creating Layer score-conv2_1
I0129 19:51:38.188383 16273 net.cpp:396] score-conv2_1 <- conv2_1_relu2_1_0_split_1
I0129 19:51:38.188390 16273 net.cpp:358] score-conv2_1 -> score-conv2_1
I0129 19:51:38.188398 16273 net.cpp:98] Setting up score-conv2_1
I0129 19:51:38.188482 16273 net.cpp:105] Top shape: 1 2 161 241 (77602)
I0129 19:51:38.188491 16273 layer_factory.hpp:78] Creating layer score-conv2_2
I0129 19:51:38.188501 16273 net.cpp:69] Creating Layer score-conv2_2
I0129 19:51:38.188506 16273 net.cpp:396] score-conv2_2 <- conv2_2_relu2_2_0_split_1
I0129 19:51:38.188514 16273 net.cpp:358] score-conv2_2 -> score-conv2_2
I0129 19:51:38.188521 16273 net.cpp:98] Setting up score-conv2_2
I0129 19:51:38.188614 16273 net.cpp:105] Top shape: 1 2 161 241 (77602)
I0129 19:51:38.188623 16273 layer_factory.hpp:78] Creating layer fuse-conv2,3
I0129 19:51:38.188633 16273 net.cpp:69] Creating Layer fuse-conv2,3
I0129 19:51:38.188638 16273 net.cpp:396] fuse-conv2,3 <- score-conv2_1
I0129 19:51:38.188643 16273 net.cpp:396] fuse-conv2,3 <- score-conv2_2
I0129 19:51:38.188648 16273 net.cpp:396] fuse-conv2,3 <- upscore-conv3c
I0129 19:51:38.188653 16273 net.cpp:358] fuse-conv2,3 -> score-conv2,3
I0129 19:51:38.188660 16273 net.cpp:98] Setting up fuse-conv2,3
I0129 19:51:38.188664 16273 net.cpp:105] Top shape: 1 2 161 241 (77602)
I0129 19:51:38.188669 16273 layer_factory.hpp:78] Creating layer upscore-conv2,3
I0129 19:51:38.188675 16273 net.cpp:69] Creating Layer upscore-conv2,3
I0129 19:51:38.188679 16273 net.cpp:396] upscore-conv2,3 <- score-conv2,3
I0129 19:51:38.188685 16273 net.cpp:358] upscore-conv2,3 -> upscore-conv2,3
I0129 19:51:38.188691 16273 net.cpp:98] Setting up upscore-conv2,3
I0129 19:51:38.188905 16273 net.cpp:105] Top shape: 1 2 324 484 (313632)
I0129 19:51:38.188915 16273 layer_factory.hpp:78] Creating layer crop-upscore-conv2,3
I0129 19:51:38.188920 16273 net.cpp:69] Creating Layer crop-upscore-conv2,3
I0129 19:51:38.188925 16273 net.cpp:396] crop-upscore-conv2,3 <- upscore-conv2,3
I0129 19:51:38.188930 16273 net.cpp:396] crop-upscore-conv2,3 <- conv1_1_relu1_1_0_split_1
I0129 19:51:38.188936 16273 net.cpp:358] crop-upscore-conv2,3 -> upscore-conv2,3c
I0129 19:51:38.188943 16273 net.cpp:98] Setting up crop-upscore-conv2,3
I0129 19:51:38.188971 16273 net.cpp:105] Top shape: 1 2 321 481 (308802)
I0129 19:51:38.188976 16273 layer_factory.hpp:78] Creating layer score-conv1_1
I0129 19:51:38.188982 16273 net.cpp:69] Creating Layer score-conv1_1
I0129 19:51:38.188987 16273 net.cpp:396] score-conv1_1 <- conv1_1_relu1_1_0_split_2
I0129 19:51:38.188992 16273 net.cpp:358] score-conv1_1 -> score-conv1_1
I0129 19:51:38.188998 16273 net.cpp:98] Setting up score-conv1_1
I0129 19:51:38.189224 16273 net.cpp:105] Top shape: 1 2 321 481 (308802)
I0129 19:51:38.189234 16273 layer_factory.hpp:78] Creating layer score-conv1_2
I0129 19:51:38.189249 16273 net.cpp:69] Creating Layer score-conv1_2
I0129 19:51:38.189254 16273 net.cpp:396] score-conv1_2 <- conv1_2_relu1_2_0_split_1
I0129 19:51:38.189260 16273 net.cpp:358] score-conv1_2 -> score-conv1_2
I0129 19:51:38.189267 16273 net.cpp:98] Setting up score-conv1_2
I0129 19:51:38.189491 16273 net.cpp:105] Top shape: 1 2 321 481 (308802)
I0129 19:51:38.189501 16273 layer_factory.hpp:78] Creating layer fuse-conv1,2,3
I0129 19:51:38.189515 16273 net.cpp:69] Creating Layer fuse-conv1,2,3
I0129 19:51:38.189519 16273 net.cpp:396] fuse-conv1,2,3 <- score-conv1_1
I0129 19:51:38.189524 16273 net.cpp:396] fuse-conv1,2,3 <- score-conv1_2
I0129 19:51:38.189529 16273 net.cpp:396] fuse-conv1,2,3 <- upscore-conv2,3c
I0129 19:51:38.189545 16273 net.cpp:358] fuse-conv1,2,3 -> score
I0129 19:51:38.189553 16273 net.cpp:98] Setting up fuse-conv1,2,3
I0129 19:51:38.189556 16273 net.cpp:105] Top shape: 1 2 321 481 (308802)
I0129 19:51:38.189560 16273 layer_factory.hpp:78] Creating layer score_fuse-conv1,2,3_0_split
I0129 19:51:38.189566 16273 net.cpp:69] Creating Layer score_fuse-conv1,2,3_0_split
I0129 19:51:38.189569 16273 net.cpp:396] score_fuse-conv1,2,3_0_split <- score
I0129 19:51:38.189575 16273 net.cpp:358] score_fuse-conv1,2,3_0_split -> score_fuse-conv1,2,3_0_split_0
I0129 19:51:38.189582 16273 net.cpp:358] score_fuse-conv1,2,3_0_split -> score_fuse-conv1,2,3_0_split_1
I0129 19:51:38.189589 16273 net.cpp:98] Setting up score_fuse-conv1,2,3_0_split
I0129 19:51:38.189594 16273 net.cpp:105] Top shape: 1 2 321 481 (308802)
I0129 19:51:38.189597 16273 net.cpp:105] Top shape: 1 2 321 481 (308802)
I0129 19:51:38.189601 16273 layer_factory.hpp:78] Creating layer loss
I0129 19:51:38.189606 16273 net.cpp:69] Creating Layer loss
I0129 19:51:38.189610 16273 net.cpp:396] loss <- score_fuse-conv1,2,3_0_split_0
I0129 19:51:38.189615 16273 net.cpp:396] loss <- label
I0129 19:51:38.189620 16273 net.cpp:358] loss -> loss
I0129 19:51:38.189626 16273 net.cpp:98] Setting up loss
I0129 19:51:38.189632 16273 layer_factory.hpp:78] Creating layer loss
I0129 19:51:38.190047 16273 net.cpp:105] Top shape: 1 1 1 1 (1)
I0129 19:51:38.190055 16273 net.cpp:111]     with loss weight 1
I0129 19:51:38.190075 16273 layer_factory.hpp:78] Creating layer prob
I0129 19:51:38.190080 16273 net.cpp:69] Creating Layer prob
I0129 19:51:38.190084 16273 net.cpp:396] prob <- score_fuse-conv1,2,3_0_split_1
I0129 19:51:38.190093 16273 net.cpp:358] prob -> prob
I0129 19:51:38.190099 16273 net.cpp:98] Setting up prob
I0129 19:51:38.190103 16273 net.cpp:105] Top shape: 1 2 321 481 (308802)
I0129 19:51:38.190106 16273 layer_factory.hpp:78] Creating layer silence-prob
I0129 19:51:38.190111 16273 net.cpp:69] Creating Layer silence-prob
I0129 19:51:38.190115 16273 net.cpp:396] silence-prob <- prob
I0129 19:51:38.190120 16273 net.cpp:98] Setting up silence-prob
I0129 19:51:38.190124 16273 net.cpp:174] silence-prob does not need backward computation.
I0129 19:51:38.190127 16273 net.cpp:174] prob does not need backward computation.
…
