…
I0128 20:48:25.954087 19224 net.cpp:39] Initializing net from parameters: 
name: "vgg-jet0-denoise-packed"
layers {
  top: "data"
  name: "data"
  type: DATA
  data_param {
    source: "/home/shelhamer/dpb/data/bsd500/bsd500-train-multi-lmdb"
    batch_size: 1
    backend: LMDB
  }
  include {
    phase: TRAIN
  }
  transform_param {
    mean_value: 109.9
    mean_value: 112.2
    mean_value: 93.8
  }
}
layers {
  top: "label"
  name: "label"
  type: DATA
  data_param {
    source: "/home/shelhamer/dpb/data/bsd500/bsd500-train-gt-denoise-lmdb"
    batch_size: 1
    backend: LMDB
  }
  include {
    phase: TRAIN
  }
}
layers {
  bottom: "data"
  top: "conv1_1"
  name: "conv1_1"
  type: CONVOLUTION
  blobs_lr: 0
  blobs_lr: 0
  weight_decay: 1
  weight_decay: 0
  convolution_param {
    num_output: 64
    pad: 8
    kernel_size: 3
    engine: CAFFE
  }
}
layers {
  bottom: "conv1_1"
  top: "conv1_1"
  name: "relu1_1"
  type: RELU
}
layers {
  bottom: "conv1_1"
  top: "conv1_2"
  name: "conv1_2"
  type: CONVOLUTION
  blobs_lr: 0
  blobs_lr: 0
  weight_decay: 1
  weight_decay: 0
  convolution_param {
    num_output: 64
    pad: 1
    kernel_size: 3
    engine: CAFFE
  }
}
layers {
  bottom: "conv1_2"
  top: "conv1_2"
  name: "relu1_2"
  type: RELU
}
layers {
  bottom: "conv1_2"
  top: "pool1"
  name: "pool1"
  type: POOLING
  pooling_param {
    pool: MAX
    kernel_size: 2
    stride: 1
  }
}
layers {
  bottom: "pool1"
  top: "pool1p"
  name: "pack1"
  type: REPACK
  repack_param {
    operation: PACK_IMAGE
    stride: 2
  }
}
layers {
  bottom: "pool1p"
  top: "conv2_1"
  name: "conv2_1"
  type: CONVOLUTION
  blobs_lr: 0
  blobs_lr: 0
  weight_decay: 1
  weight_decay: 0
  convolution_param {
    num_output: 128
    pad: 1
    kernel_size: 3
    engine: CAFFE
  }
}
layers {
  bottom: "conv2_1"
  top: "conv2_1"
  name: "relu2_1"
  type: RELU
}
layers {
  bottom: "conv2_1"
  top: "conv2_2"
  name: "conv2_2"
  type: CONVOLUTION
  blobs_lr: 0
  blobs_lr: 0
  weight_decay: 1
  weight_decay: 0
  convolution_param {
    num_output: 128
    pad: 1
    kernel_size: 3
    engine: CAFFE
  }
}
layers {
  bottom: "conv2_2"
  top: "conv2_2"
  name: "relu2_2"
  type: RELU
}
layers {
  bottom: "conv2_2"
  top: "pool2"
  name: "pool2"
  type: POOLING
  pooling_param {
    pool: MAX
    kernel_size: 2
    stride: 1
  }
}
layers {
  bottom: "pool2"
  top: "pool2p"
  name: "pack2"
  type: REPACK
  repack_param {
    operation: PACK_IMAGE
    stride: 2
  }
}
layers {
  bottom: "pool2p"
  top: "conv3_1"
  name: "conv3_1"
  type: CONVOLUTION
  blobs_lr: 0
  blobs_lr: 0
  weight_decay: 1
  weight_decay: 0
  convolution_param {
    num_output: 256
    pad: 1
    kernel_size: 3
    engine: CAFFE
  }
}
layers {
  bottom: "conv3_1"
  top: "conv3_1"
  name: "relu3_1"
  type: RELU
}
layers {
  bottom: "conv3_1"
  top: "conv3_2"
  name: "conv3_2"
  type: CONVOLUTION
  blobs_lr: 0
  blobs_lr: 0
  weight_decay: 1
  weight_decay: 0
  convolution_param {
    num_output: 256
    pad: 1
    kernel_size: 3
    engine: CAFFE
  }
}
layers {
  bottom: "conv3_2"
  top: "conv3_3"
  name: "conv3_3"
  type: CONVOLUTION
  blobs_lr: 0
  blobs_lr: 0
  weight_decay: 1
  weight_decay: 0
  convolution_param {
    num_output: 256
    pad: 1
    kernel_size: 3
    engine: CAFFE
  }
}
layers {
  bottom: "conv3_3"
  top: "conv3_3"
  name: "relu3_3"
  type: RELU
}
layers {
  bottom: "conv3_3"
  top: "unpack2"
  name: "unpack2"
  type: REPACK
  repack_param {
    operation: UNPACK_IMAGE
    stride: 2
  }
}
layers {
  bottom: "unpack2"
  top: "unpack1"
  name: "unpack1"
  type: REPACK
  repack_param {
    operation: UNPACK_IMAGE
    stride: 2
  }
}
layers {
  bottom: "unpack1"
  top: "score"
  name: "score"
  type: CONVOLUTION
  blobs_lr: 1
  blobs_lr: 2
  weight_decay: 1
  weight_decay: 0
  convolution_param {
    num_output: 2
    kernel_size: 1
    weight_filler {
      type: "xavier"
    }
    engine: CAFFE
  }
}
layers {
  bottom: "score"
  bottom: "data"
  top: "scorec"
  name: "crop"
  type: CROP
}
layers {
  bottom: "scorec"
  bottom: "label"
  top: "loss"
  name: "loss"
  type: SOFTMAX_LOSS
  loss_param {
    ignore_label: 255
    normalize: false
  }
}
state {
  phase: TRAIN
}
I0128 20:48:25.954206 19224 layer_factory.hpp:78] Creating layer data
I0128 20:48:25.954226 19224 net.cpp:69] Creating Layer data
I0128 20:48:25.954234 19224 net.cpp:358] data -> data
I0128 20:48:25.954249 19224 net.cpp:98] Setting up data
I0128 20:48:25.954257 19224 data_layer.cpp:32] Opening dataset /home/shelhamer/dpb/data/bsd500/bsd500-train-multi-lmdb
I0128 20:48:25.954831 19224 data_layer.cpp:71] output data size: 1,3,481,321
I0128 20:48:25.955303 19224 net.cpp:105] Top shape: 1 3 481 321 (463203)
I0128 20:48:25.955312 19224 layer_factory.hpp:78] Creating layer data_data_0_split
I0128 20:48:25.955320 19224 net.cpp:69] Creating Layer data_data_0_split
I0128 20:48:25.955325 19224 net.cpp:396] data_data_0_split <- data
I0128 20:48:25.955332 19224 net.cpp:358] data_data_0_split -> data_data_0_split_0
I0128 20:48:25.955338 19224 net.cpp:358] data_data_0_split -> data_data_0_split_1
I0128 20:48:25.955345 19224 net.cpp:98] Setting up data_data_0_split
I0128 20:48:25.955353 19224 net.cpp:105] Top shape: 1 3 481 321 (463203)
I0128 20:48:25.955356 19224 net.cpp:105] Top shape: 1 3 481 321 (463203)
I0128 20:48:25.955360 19224 layer_factory.hpp:78] Creating layer label
I0128 20:48:25.955366 19224 net.cpp:69] Creating Layer label
I0128 20:48:25.955374 19224 net.cpp:358] label -> label
I0128 20:48:25.955379 19224 net.cpp:98] Setting up label
I0128 20:48:25.955384 19224 data_layer.cpp:32] Opening dataset /home/shelhamer/dpb/data/bsd500/bsd500-train-gt-denoise-lmdb
I0128 20:48:25.955574 19224 data_layer.cpp:71] output data size: 1,1,481,321
I0128 20:48:25.955780 19224 net.cpp:105] Top shape: 1 1 481 321 (154401)
I0128 20:48:25.955786 19224 layer_factory.hpp:78] Creating layer conv1_1
I0128 20:48:25.955796 19224 net.cpp:69] Creating Layer conv1_1
I0128 20:48:25.955799 19224 net.cpp:396] conv1_1 <- data_data_0_split_0
I0128 20:48:25.955822 19224 net.cpp:358] conv1_1 -> conv1_1
I0128 20:48:25.955834 19224 net.cpp:98] Setting up conv1_1
I0128 20:48:25.956149 19224 net.cpp:105] Top shape: 1 64 495 335 (10612800)
I0128 20:48:25.956167 19224 layer_factory.hpp:78] Creating layer relu1_1
I0128 20:48:25.956174 19224 net.cpp:69] Creating Layer relu1_1
I0128 20:48:25.956178 19224 net.cpp:396] relu1_1 <- conv1_1
I0128 20:48:25.956183 19224 net.cpp:347] relu1_1 -> conv1_1 (in-place)
I0128 20:48:25.956189 19224 net.cpp:98] Setting up relu1_1
I0128 20:48:25.956195 19224 net.cpp:105] Top shape: 1 64 495 335 (10612800)
I0128 20:48:25.956199 19224 layer_factory.hpp:78] Creating layer conv1_2
I0128 20:48:25.956204 19224 net.cpp:69] Creating Layer conv1_2
I0128 20:48:25.956208 19224 net.cpp:396] conv1_2 <- conv1_1
I0128 20:48:25.956213 19224 net.cpp:358] conv1_2 -> conv1_2
I0128 20:48:25.956219 19224 net.cpp:98] Setting up conv1_2
I0128 20:48:25.956601 19224 net.cpp:105] Top shape: 1 64 495 335 (10612800)
I0128 20:48:25.956612 19224 layer_factory.hpp:78] Creating layer relu1_2
I0128 20:48:25.956619 19224 net.cpp:69] Creating Layer relu1_2
I0128 20:48:25.956634 19224 net.cpp:396] relu1_2 <- conv1_2
I0128 20:48:25.956641 19224 net.cpp:347] relu1_2 -> conv1_2 (in-place)
I0128 20:48:25.956646 19224 net.cpp:98] Setting up relu1_2
I0128 20:48:25.956650 19224 net.cpp:105] Top shape: 1 64 495 335 (10612800)
I0128 20:48:25.956655 19224 layer_factory.hpp:78] Creating layer pool1
I0128 20:48:25.956661 19224 net.cpp:69] Creating Layer pool1
I0128 20:48:25.956666 19224 net.cpp:396] pool1 <- conv1_2
I0128 20:48:25.956671 19224 net.cpp:358] pool1 -> pool1
I0128 20:48:25.956677 19224 net.cpp:98] Setting up pool1
I0128 20:48:25.956689 19224 net.cpp:105] Top shape: 1 64 494 334 (10559744)
I0128 20:48:25.956693 19224 layer_factory.hpp:78] Creating layer pack1
I0128 20:48:25.956701 19224 net.cpp:69] Creating Layer pack1
I0128 20:48:25.956706 19224 net.cpp:396] pack1 <- pool1
I0128 20:48:25.956711 19224 net.cpp:358] pack1 -> pool1p
I0128 20:48:25.956717 19224 net.cpp:98] Setting up pack1
I0128 20:48:25.956722 19224 net.cpp:105] Top shape: 4 64 247 167 (10559744)
I0128 20:48:25.956727 19224 layer_factory.hpp:78] Creating layer conv2_1
I0128 20:48:25.956732 19224 net.cpp:69] Creating Layer conv2_1
I0128 20:48:25.956735 19224 net.cpp:396] conv2_1 <- pool1p
I0128 20:48:25.956740 19224 net.cpp:358] conv2_1 -> conv2_1
I0128 20:48:25.956748 19224 net.cpp:98] Setting up conv2_1
I0128 20:48:25.956989 19224 net.cpp:105] Top shape: 4 128 247 167 (21119488)
I0128 20:48:25.957000 19224 layer_factory.hpp:78] Creating layer relu2_1
I0128 20:48:25.957005 19224 net.cpp:69] Creating Layer relu2_1
I0128 20:48:25.957008 19224 net.cpp:396] relu2_1 <- conv2_1
I0128 20:48:25.957013 19224 net.cpp:347] relu2_1 -> conv2_1 (in-place)
I0128 20:48:25.957020 19224 net.cpp:98] Setting up relu2_1
I0128 20:48:25.957023 19224 net.cpp:105] Top shape: 4 128 247 167 (21119488)
I0128 20:48:25.957027 19224 layer_factory.hpp:78] Creating layer conv2_2
I0128 20:48:25.957032 19224 net.cpp:69] Creating Layer conv2_2
I0128 20:48:25.957036 19224 net.cpp:396] conv2_2 <- conv2_1
I0128 20:48:25.957041 19224 net.cpp:358] conv2_2 -> conv2_2
I0128 20:48:25.957047 19224 net.cpp:98] Setting up conv2_2
I0128 20:48:25.957370 19224 net.cpp:105] Top shape: 4 128 247 167 (21119488)
I0128 20:48:25.957381 19224 layer_factory.hpp:78] Creating layer relu2_2
I0128 20:48:25.957386 19224 net.cpp:69] Creating Layer relu2_2
I0128 20:48:25.957389 19224 net.cpp:396] relu2_2 <- conv2_2
I0128 20:48:25.957396 19224 net.cpp:347] relu2_2 -> conv2_2 (in-place)
I0128 20:48:25.957401 19224 net.cpp:98] Setting up relu2_2
I0128 20:48:25.957404 19224 net.cpp:105] Top shape: 4 128 247 167 (21119488)
I0128 20:48:25.957407 19224 layer_factory.hpp:78] Creating layer pool2
I0128 20:48:25.957412 19224 net.cpp:69] Creating Layer pool2
I0128 20:48:25.957417 19224 net.cpp:396] pool2 <- conv2_2
I0128 20:48:25.957422 19224 net.cpp:358] pool2 -> pool2
I0128 20:48:25.957427 19224 net.cpp:98] Setting up pool2
I0128 20:48:25.957432 19224 net.cpp:105] Top shape: 4 128 246 166 (20908032)
I0128 20:48:25.957435 19224 layer_factory.hpp:78] Creating layer pack2
I0128 20:48:25.957440 19224 net.cpp:69] Creating Layer pack2
I0128 20:48:25.957444 19224 net.cpp:396] pack2 <- pool2
I0128 20:48:25.957449 19224 net.cpp:358] pack2 -> pool2p
I0128 20:48:25.957455 19224 net.cpp:98] Setting up pack2
I0128 20:48:25.957459 19224 net.cpp:105] Top shape: 16 128 123 83 (20908032)
I0128 20:48:25.957463 19224 layer_factory.hpp:78] Creating layer conv3_1
I0128 20:48:25.957468 19224 net.cpp:69] Creating Layer conv3_1
I0128 20:48:25.957473 19224 net.cpp:396] conv3_1 <- pool2p
I0128 20:48:25.957478 19224 net.cpp:358] conv3_1 -> conv3_1
I0128 20:48:25.957484 19224 net.cpp:98] Setting up conv3_1
I0128 20:48:25.957989 19224 net.cpp:105] Top shape: 16 256 123 83 (41816064)
I0128 20:48:25.958001 19224 layer_factory.hpp:78] Creating layer relu3_1
I0128 20:48:25.958017 19224 net.cpp:69] Creating Layer relu3_1
I0128 20:48:25.958022 19224 net.cpp:396] relu3_1 <- conv3_1
I0128 20:48:25.958027 19224 net.cpp:347] relu3_1 -> conv3_1 (in-place)
I0128 20:48:25.958034 19224 net.cpp:98] Setting up relu3_1
I0128 20:48:25.958055 19224 net.cpp:105] Top shape: 16 256 123 83 (41816064)
I0128 20:48:25.958060 19224 layer_factory.hpp:78] Creating layer conv3_2
I0128 20:48:25.958076 19224 net.cpp:69] Creating Layer conv3_2
I0128 20:48:25.958080 19224 net.cpp:396] conv3_2 <- conv3_1
I0128 20:48:25.958086 19224 net.cpp:358] conv3_2 -> conv3_2
I0128 20:48:25.958091 19224 net.cpp:98] Setting up conv3_2
I0128 20:48:25.959096 19224 net.cpp:105] Top shape: 16 256 123 83 (41816064)
I0128 20:48:25.959107 19224 layer_factory.hpp:78] Creating layer conv3_3
I0128 20:48:25.959113 19224 net.cpp:69] Creating Layer conv3_3
I0128 20:48:25.959117 19224 net.cpp:396] conv3_3 <- conv3_2
I0128 20:48:25.959126 19224 net.cpp:358] conv3_3 -> conv3_3
I0128 20:48:25.959133 19224 net.cpp:98] Setting up conv3_3
I0128 20:48:25.960090 19224 net.cpp:105] Top shape: 16 256 123 83 (41816064)
I0128 20:48:25.960109 19224 layer_factory.hpp:78] Creating layer relu3_3
I0128 20:48:25.960115 19224 net.cpp:69] Creating Layer relu3_3
I0128 20:48:25.960120 19224 net.cpp:396] relu3_3 <- conv3_3
I0128 20:48:25.960127 19224 net.cpp:347] relu3_3 -> conv3_3 (in-place)
I0128 20:48:25.960132 19224 net.cpp:98] Setting up relu3_3
I0128 20:48:25.960136 19224 net.cpp:105] Top shape: 16 256 123 83 (41816064)
I0128 20:48:25.960140 19224 layer_factory.hpp:78] Creating layer unpack2
I0128 20:48:25.960146 19224 net.cpp:69] Creating Layer unpack2
I0128 20:48:25.960150 19224 net.cpp:396] unpack2 <- conv3_3
I0128 20:48:25.960156 19224 net.cpp:358] unpack2 -> unpack2
I0128 20:48:25.960161 19224 net.cpp:98] Setting up unpack2
I0128 20:48:25.960166 19224 net.cpp:105] Top shape: 4 256 246 166 (41816064)
I0128 20:48:25.960170 19224 layer_factory.hpp:78] Creating layer unpack1
I0128 20:48:25.960175 19224 net.cpp:69] Creating Layer unpack1
I0128 20:48:25.960178 19224 net.cpp:396] unpack1 <- unpack2
I0128 20:48:25.960183 19224 net.cpp:358] unpack1 -> unpack1
I0128 20:48:25.960191 19224 net.cpp:98] Setting up unpack1
I0128 20:48:25.960196 19224 net.cpp:105] Top shape: 1 256 492 332 (41816064)
I0128 20:48:25.960201 19224 layer_factory.hpp:78] Creating layer score
I0128 20:48:25.960206 19224 net.cpp:69] Creating Layer score
I0128 20:48:25.960211 19224 net.cpp:396] score <- unpack1
I0128 20:48:25.960216 19224 net.cpp:358] score -> score
I0128 20:48:25.960222 19224 net.cpp:98] Setting up score
I0128 20:48:25.960744 19224 net.cpp:105] Top shape: 1 2 492 332 (326688)
I0128 20:48:25.960755 19224 layer_factory.hpp:78] Creating layer crop
I0128 20:48:25.960763 19224 net.cpp:69] Creating Layer crop
I0128 20:48:25.960768 19224 net.cpp:396] crop <- score
I0128 20:48:25.960773 19224 net.cpp:396] crop <- data_data_0_split_1
I0128 20:48:25.960778 19224 net.cpp:358] crop -> scorec
I0128 20:48:25.960784 19224 net.cpp:98] Setting up crop
I0128 20:48:25.960824 19224 net.cpp:105] Top shape: 1 2 481 321 (308802)
I0128 20:48:25.960829 19224 layer_factory.hpp:78] Creating layer loss
I0128 20:48:25.960836 19224 net.cpp:69] Creating Layer loss
I0128 20:48:25.960841 19224 net.cpp:396] loss <- scorec
I0128 20:48:25.960845 19224 net.cpp:396] loss <- label
I0128 20:48:25.960851 19224 net.cpp:358] loss -> loss
I0128 20:48:25.960860 19224 net.cpp:98] Setting up loss
I0128 20:48:25.960870 19224 net.cpp:105] Top shape: 1 1 1 1 (1)
I0128 20:48:25.960875 19224 net.cpp:111]     with loss weight 1
I0128 20:48:25.960904 19224 net.cpp:172] loss needs backward computation.
I0128 20:48:25.960909 19224 net.cpp:172] crop needs backward computation.
I0128 20:48:25.960913 19224 net.cpp:172] score needs backward computation.
I0128 20:48:25.960917 19224 net.cpp:174] unpack1 does not need backward computation.
I0128 20:48:25.960922 19224 net.cpp:174] unpack2 does not need backward computation.
…
I0128 20:48:25.961763 19224 net.cpp:39] Initializing net from parameters: 
name: "vgg-jet0-denoise-packed"
layers {
  top: "data"
  name: "data"
  type: DATA
  data_param {
    source: "/home/shelhamer/dpb/data/bsd500/bsd500-val-multi-lmdb"
    batch_size: 1
    backend: LMDB
  }
  include {
    phase: TEST
  }
  transform_param {
    mean_value: 109.9
    mean_value: 112.2
    mean_value: 93.8
  }
}
layers {
  top: "label"
  name: "label"
  type: DATA
  data_param {
    source: "/home/shelhamer/dpb/data/bsd500/bsd500-val-gt-denoise-lmdb"
    batch_size: 1
    backend: LMDB
  }
  include {
    phase: TEST
  }
}
layers {
  bottom: "data"
  top: "conv1_1"
  name: "conv1_1"
  type: CONVOLUTION
  blobs_lr: 0
  blobs_lr: 0
  weight_decay: 1
  weight_decay: 0
  convolution_param {
    num_output: 64
    pad: 8
    kernel_size: 3
    engine: CAFFE
  }
}
layers {
  bottom: "conv1_1"
  top: "conv1_1"
  name: "relu1_1"
  type: RELU
}
layers {
  bottom: "conv1_1"
  top: "conv1_2"
  name: "conv1_2"
  type: CONVOLUTION
  blobs_lr: 0
  blobs_lr: 0
  weight_decay: 1
  weight_decay: 0
  convolution_param {
    num_output: 64
    pad: 1
    kernel_size: 3
    engine: CAFFE
  }
}
layers {
  bottom: "conv1_2"
  top: "conv1_2"
  name: "relu1_2"
  type: RELU
}
layers {
  bottom: "conv1_2"
  top: "pool1"
  name: "pool1"
  type: POOLING
  pooling_param {
    pool: MAX
    kernel_size: 2
    stride: 1
  }
}
layers {
  bottom: "pool1"
  top: "pool1p"
  name: "pack1"
  type: REPACK
  repack_param {
    operation: PACK_IMAGE
    stride: 2
  }
}
layers {
  bottom: "pool1p"
  top: "conv2_1"
  name: "conv2_1"
  type: CONVOLUTION
  blobs_lr: 0
  blobs_lr: 0
  weight_decay: 1
  weight_decay: 0
  convolution_param {
    num_output: 128
    pad: 1
    kernel_size: 3
    engine: CAFFE
  }
}
layers {
  bottom: "conv2_1"
  top: "conv2_1"
  name: "relu2_1"
  type: RELU
}
layers {
  bottom: "conv2_1"
  top: "conv2_2"
  name: "conv2_2"
  type: CONVOLUTION
  blobs_lr: 0
  blobs_lr: 0
  weight_decay: 1
  weight_decay: 0
  convolution_param {
    num_output: 128
    pad: 1
    kernel_size: 3
    engine: CAFFE
  }
}
layers {
  bottom: "conv2_2"
  top: "conv2_2"
  name: "relu2_2"
  type: RELU
}
layers {
  bottom: "conv2_2"
  top: "pool2"
  name: "pool2"
  type: POOLING
  pooling_param {
    pool: MAX
    kernel_size: 2
    stride: 1
  }
}
layers {
  bottom: "pool2"
  top: "pool2p"
  name: "pack2"
  type: REPACK
  repack_param {
    operation: PACK_IMAGE
    stride: 2
  }
}
layers {
  bottom: "pool2p"
  top: "conv3_1"
  name: "conv3_1"
  type: CONVOLUTION
  blobs_lr: 0
  blobs_lr: 0
  weight_decay: 1
  weight_decay: 0
  convolution_param {
    num_output: 256
    pad: 1
    kernel_size: 3
    engine: CAFFE
  }
}
layers {
  bottom: "conv3_1"
  top: "conv3_1"
  name: "relu3_1"
  type: RELU
}
layers {
  bottom: "conv3_1"
  top: "conv3_2"
  name: "conv3_2"
  type: CONVOLUTION
  blobs_lr: 0
  blobs_lr: 0
  weight_decay: 1
  weight_decay: 0
  convolution_param {
    num_output: 256
    pad: 1
    kernel_size: 3
    engine: CAFFE
  }
}
layers {
  bottom: "conv3_2"
  top: "conv3_3"
  name: "conv3_3"
  type: CONVOLUTION
  blobs_lr: 0
  blobs_lr: 0
  weight_decay: 1
  weight_decay: 0
  convolution_param {
    num_output: 256
    pad: 1
    kernel_size: 3
    engine: CAFFE
  }
}
layers {
  bottom: "conv3_3"
  top: "conv3_3"
  name: "relu3_3"
  type: RELU
}
layers {
  bottom: "conv3_3"
  top: "unpack2"
  name: "unpack2"
  type: REPACK
  repack_param {
    operation: UNPACK_IMAGE
    stride: 2
  }
}
layers {
  bottom: "unpack2"
  top: "unpack1"
  name: "unpack1"
  type: REPACK
  repack_param {
    operation: UNPACK_IMAGE
    stride: 2
  }
}
layers {
  bottom: "unpack1"
  top: "score"
  name: "score"
  type: CONVOLUTION
  blobs_lr: 1
  blobs_lr: 2
  weight_decay: 1
  weight_decay: 0
  convolution_param {
    num_output: 2
    kernel_size: 1
    weight_filler {
      type: "xavier"
    }
    engine: CAFFE
  }
}
layers {
  bottom: "score"
  bottom: "data"
  top: "scorec"
  name: "crop"
  type: CROP
}
layers {
  bottom: "scorec"
  bottom: "label"
  top: "loss"
  name: "loss"
  type: SOFTMAX_LOSS
  loss_param {
    ignore_label: 255
    normalize: false
  }
}
layers {
  bottom: "score"
  top: "prob"
  name: "prob"
  type: SOFTMAX
  include {
    phase: TEST
  }
}
layers {
  bottom: "prob"
  name: "silence-prob"
  type: SILENCE
  include {
    phase: TEST
  }
}
state {
  phase: TEST
}
I0128 20:48:25.961855 19224 layer_factory.hpp:78] Creating layer data
I0128 20:48:25.961864 19224 net.cpp:69] Creating Layer data
I0128 20:48:25.961869 19224 net.cpp:358] data -> data
I0128 20:48:25.961876 19224 net.cpp:98] Setting up data
I0128 20:48:25.961881 19224 data_layer.cpp:32] Opening dataset /home/shelhamer/dpb/data/bsd500/bsd500-val-multi-lmdb
I0128 20:48:25.962359 19224 data_layer.cpp:71] output data size: 1,3,321,481
I0128 20:48:25.962785 19224 net.cpp:105] Top shape: 1 3 321 481 (463203)
I0128 20:48:25.962793 19224 layer_factory.hpp:78] Creating layer data_data_0_split
I0128 20:48:25.962800 19224 net.cpp:69] Creating Layer data_data_0_split
I0128 20:48:25.962805 19224 net.cpp:396] data_data_0_split <- data
I0128 20:48:25.962811 19224 net.cpp:358] data_data_0_split -> data_data_0_split_0
I0128 20:48:25.962818 19224 net.cpp:358] data_data_0_split -> data_data_0_split_1
I0128 20:48:25.962824 19224 net.cpp:98] Setting up data_data_0_split
I0128 20:48:25.962831 19224 net.cpp:105] Top shape: 1 3 321 481 (463203)
I0128 20:48:25.962834 19224 net.cpp:105] Top shape: 1 3 321 481 (463203)
I0128 20:48:25.962838 19224 layer_factory.hpp:78] Creating layer label
I0128 20:48:25.962846 19224 net.cpp:69] Creating Layer label
I0128 20:48:25.962852 19224 net.cpp:358] label -> label
I0128 20:48:25.962857 19224 net.cpp:98] Setting up label
I0128 20:48:25.962862 19224 data_layer.cpp:32] Opening dataset /home/shelhamer/dpb/data/bsd500/bsd500-val-gt-denoise-lmdb
I0128 20:48:25.963054 19224 data_layer.cpp:71] output data size: 1,1,321,481
I0128 20:48:25.963249 19224 net.cpp:105] Top shape: 1 1 321 481 (154401)
I0128 20:48:25.963256 19224 layer_factory.hpp:78] Creating layer conv1_1
I0128 20:48:25.963263 19224 net.cpp:69] Creating Layer conv1_1
I0128 20:48:25.963268 19224 net.cpp:396] conv1_1 <- data_data_0_split_0
I0128 20:48:25.963284 19224 net.cpp:358] conv1_1 -> conv1_1
I0128 20:48:25.963291 19224 net.cpp:98] Setting up conv1_1
I0128 20:48:25.963532 19224 net.cpp:105] Top shape: 1 64 335 495 (10612800)
I0128 20:48:25.963544 19224 layer_factory.hpp:78] Creating layer relu1_1
I0128 20:48:25.963551 19224 net.cpp:69] Creating Layer relu1_1
I0128 20:48:25.963556 19224 net.cpp:396] relu1_1 <- conv1_1
I0128 20:48:25.963560 19224 net.cpp:347] relu1_1 -> conv1_1 (in-place)
I0128 20:48:25.963567 19224 net.cpp:98] Setting up relu1_1
I0128 20:48:25.963572 19224 net.cpp:105] Top shape: 1 64 335 495 (10612800)
I0128 20:48:25.963575 19224 layer_factory.hpp:78] Creating layer conv1_2
I0128 20:48:25.963580 19224 net.cpp:69] Creating Layer conv1_2
I0128 20:48:25.963584 19224 net.cpp:396] conv1_2 <- conv1_1
I0128 20:48:25.963589 19224 net.cpp:358] conv1_2 -> conv1_2
I0128 20:48:25.963595 19224 net.cpp:98] Setting up conv1_2
I0128 20:48:25.963883 19224 net.cpp:105] Top shape: 1 64 335 495 (10612800)
I0128 20:48:25.963894 19224 layer_factory.hpp:78] Creating layer relu1_2
I0128 20:48:25.963899 19224 net.cpp:69] Creating Layer relu1_2
I0128 20:48:25.963904 19224 net.cpp:396] relu1_2 <- conv1_2
I0128 20:48:25.963909 19224 net.cpp:347] relu1_2 -> conv1_2 (in-place)
I0128 20:48:25.963915 19224 net.cpp:98] Setting up relu1_2
I0128 20:48:25.963919 19224 net.cpp:105] Top shape: 1 64 335 495 (10612800)
I0128 20:48:25.963922 19224 layer_factory.hpp:78] Creating layer pool1
I0128 20:48:25.963928 19224 net.cpp:69] Creating Layer pool1
I0128 20:48:25.963932 19224 net.cpp:396] pool1 <- conv1_2
I0128 20:48:25.963937 19224 net.cpp:358] pool1 -> pool1
I0128 20:48:25.963944 19224 net.cpp:98] Setting up pool1
I0128 20:48:25.963950 19224 net.cpp:105] Top shape: 1 64 334 494 (10559744)
I0128 20:48:25.963954 19224 layer_factory.hpp:78] Creating layer pack1
I0128 20:48:25.963960 19224 net.cpp:69] Creating Layer pack1
I0128 20:48:25.963964 19224 net.cpp:396] pack1 <- pool1
I0128 20:48:25.963970 19224 net.cpp:358] pack1 -> pool1p
I0128 20:48:25.963975 19224 net.cpp:98] Setting up pack1
I0128 20:48:25.963981 19224 net.cpp:105] Top shape: 4 64 167 247 (10559744)
I0128 20:48:25.963985 19224 layer_factory.hpp:78] Creating layer conv2_1
I0128 20:48:25.963990 19224 net.cpp:69] Creating Layer conv2_1
I0128 20:48:25.963994 19224 net.cpp:396] conv2_1 <- pool1p
I0128 20:48:25.964000 19224 net.cpp:358] conv2_1 -> conv2_1
I0128 20:48:25.964006 19224 net.cpp:98] Setting up conv2_1
I0128 20:48:25.964175 19224 net.cpp:105] Top shape: 4 128 167 247 (21119488)
I0128 20:48:25.964185 19224 layer_factory.hpp:78] Creating layer relu2_1
I0128 20:48:25.964190 19224 net.cpp:69] Creating Layer relu2_1
I0128 20:48:25.964195 19224 net.cpp:396] relu2_1 <- conv2_1
I0128 20:48:25.964200 19224 net.cpp:347] relu2_1 -> conv2_1 (in-place)
I0128 20:48:25.964206 19224 net.cpp:98] Setting up relu2_1
I0128 20:48:25.964210 19224 net.cpp:105] Top shape: 4 128 167 247 (21119488)
I0128 20:48:25.964215 19224 layer_factory.hpp:78] Creating layer conv2_2
I0128 20:48:25.964220 19224 net.cpp:69] Creating Layer conv2_2
I0128 20:48:25.964223 19224 net.cpp:396] conv2_2 <- conv2_1
I0128 20:48:25.964228 19224 net.cpp:358] conv2_2 -> conv2_2
I0128 20:48:25.964234 19224 net.cpp:98] Setting up conv2_2
I0128 20:48:25.964500 19224 net.cpp:105] Top shape: 4 128 167 247 (21119488)
I0128 20:48:25.964510 19224 layer_factory.hpp:78] Creating layer relu2_2
I0128 20:48:25.964515 19224 net.cpp:69] Creating Layer relu2_2
I0128 20:48:25.964519 19224 net.cpp:396] relu2_2 <- conv2_2
I0128 20:48:25.964525 19224 net.cpp:347] relu2_2 -> conv2_2 (in-place)
I0128 20:48:25.964530 19224 net.cpp:98] Setting up relu2_2
I0128 20:48:25.964534 19224 net.cpp:105] Top shape: 4 128 167 247 (21119488)
I0128 20:48:25.964539 19224 layer_factory.hpp:78] Creating layer pool2
I0128 20:48:25.964543 19224 net.cpp:69] Creating Layer pool2
I0128 20:48:25.964547 19224 net.cpp:396] pool2 <- conv2_2
I0128 20:48:25.964552 19224 net.cpp:358] pool2 -> pool2
I0128 20:48:25.964558 19224 net.cpp:98] Setting up pool2
I0128 20:48:25.964563 19224 net.cpp:105] Top shape: 4 128 166 246 (20908032)
I0128 20:48:25.964576 19224 layer_factory.hpp:78] Creating layer pack2
I0128 20:48:25.964581 19224 net.cpp:69] Creating Layer pack2
I0128 20:48:25.964586 19224 net.cpp:396] pack2 <- pool2
I0128 20:48:25.964591 19224 net.cpp:358] pack2 -> pool2p
I0128 20:48:25.964597 19224 net.cpp:98] Setting up pack2
I0128 20:48:25.964602 19224 net.cpp:105] Top shape: 16 128 83 123 (20908032)
I0128 20:48:25.964607 19224 layer_factory.hpp:78] Creating layer conv3_1
I0128 20:48:25.964612 19224 net.cpp:69] Creating Layer conv3_1
I0128 20:48:25.964615 19224 net.cpp:396] conv3_1 <- pool2p
I0128 20:48:25.964622 19224 net.cpp:358] conv3_1 -> conv3_1
I0128 20:48:25.964627 19224 net.cpp:98] Setting up conv3_1
I0128 20:48:25.965037 19224 net.cpp:105] Top shape: 16 256 83 123 (41816064)
I0128 20:48:25.965049 19224 layer_factory.hpp:78] Creating layer relu3_1
I0128 20:48:25.965055 19224 net.cpp:69] Creating Layer relu3_1
I0128 20:48:25.965059 19224 net.cpp:396] relu3_1 <- conv3_1
I0128 20:48:25.965065 19224 net.cpp:347] relu3_1 -> conv3_1 (in-place)
I0128 20:48:25.965070 19224 net.cpp:98] Setting up relu3_1
I0128 20:48:25.965075 19224 net.cpp:105] Top shape: 16 256 83 123 (41816064)
I0128 20:48:25.965078 19224 layer_factory.hpp:78] Creating layer conv3_2
I0128 20:48:25.965085 19224 net.cpp:69] Creating Layer conv3_2
I0128 20:48:25.965088 19224 net.cpp:396] conv3_2 <- conv3_1
I0128 20:48:25.965093 19224 net.cpp:358] conv3_2 -> conv3_2
I0128 20:48:25.965100 19224 net.cpp:98] Setting up conv3_2
I0128 20:48:25.965916 19224 net.cpp:105] Top shape: 16 256 83 123 (41816064)
I0128 20:48:25.965929 19224 layer_factory.hpp:78] Creating layer conv3_3
I0128 20:48:25.965934 19224 net.cpp:69] Creating Layer conv3_3
I0128 20:48:25.965939 19224 net.cpp:396] conv3_3 <- conv3_2
I0128 20:48:25.965947 19224 net.cpp:358] conv3_3 -> conv3_3
I0128 20:48:25.965955 19224 net.cpp:98] Setting up conv3_3
I0128 20:48:25.966425 19224 net.cpp:105] Top shape: 16 256 83 123 (41816064)
I0128 20:48:25.966435 19224 layer_factory.hpp:78] Creating layer relu3_3
I0128 20:48:25.966441 19224 net.cpp:69] Creating Layer relu3_3
I0128 20:48:25.966445 19224 net.cpp:396] relu3_3 <- conv3_3
I0128 20:48:25.966451 19224 net.cpp:347] relu3_3 -> conv3_3 (in-place)
I0128 20:48:25.966456 19224 net.cpp:98] Setting up relu3_3
I0128 20:48:25.966460 19224 net.cpp:105] Top shape: 16 256 83 123 (41816064)
I0128 20:48:25.966464 19224 layer_factory.hpp:78] Creating layer unpack2
I0128 20:48:25.966470 19224 net.cpp:69] Creating Layer unpack2
I0128 20:48:25.966475 19224 net.cpp:396] unpack2 <- conv3_3
I0128 20:48:25.966480 19224 net.cpp:358] unpack2 -> unpack2
I0128 20:48:25.966485 19224 net.cpp:98] Setting up unpack2
I0128 20:48:25.966490 19224 net.cpp:105] Top shape: 4 256 166 246 (41816064)
I0128 20:48:25.966495 19224 layer_factory.hpp:78] Creating layer unpack1
I0128 20:48:25.966498 19224 net.cpp:69] Creating Layer unpack1
I0128 20:48:25.966502 19224 net.cpp:396] unpack1 <- unpack2
I0128 20:48:25.966507 19224 net.cpp:358] unpack1 -> unpack1
I0128 20:48:25.966514 19224 net.cpp:98] Setting up unpack1
I0128 20:48:25.966519 19224 net.cpp:105] Top shape: 1 256 332 492 (41816064)
I0128 20:48:25.966523 19224 layer_factory.hpp:78] Creating layer score
I0128 20:48:25.966529 19224 net.cpp:69] Creating Layer score
I0128 20:48:25.966533 19224 net.cpp:396] score <- unpack1
I0128 20:48:25.966538 19224 net.cpp:358] score -> score
I0128 20:48:25.966545 19224 net.cpp:98] Setting up score
I0128 20:48:25.966778 19224 net.cpp:105] Top shape: 1 2 332 492 (326688)
I0128 20:48:25.966789 19224 layer_factory.hpp:78] Creating layer score_score_0_split
I0128 20:48:25.966794 19224 net.cpp:69] Creating Layer score_score_0_split
I0128 20:48:25.966797 19224 net.cpp:396] score_score_0_split <- score
I0128 20:48:25.966804 19224 net.cpp:358] score_score_0_split -> score_score_0_split_0
I0128 20:48:25.966810 19224 net.cpp:358] score_score_0_split -> score_score_0_split_1
I0128 20:48:25.966816 19224 net.cpp:98] Setting up score_score_0_split
I0128 20:48:25.966821 19224 net.cpp:105] Top shape: 1 2 332 492 (326688)
I0128 20:48:25.966835 19224 net.cpp:105] Top shape: 1 2 332 492 (326688)
I0128 20:48:25.966840 19224 layer_factory.hpp:78] Creating layer crop
I0128 20:48:25.966845 19224 net.cpp:69] Creating Layer crop
I0128 20:48:25.966850 19224 net.cpp:396] crop <- score_score_0_split_0
I0128 20:48:25.966856 19224 net.cpp:396] crop <- data_data_0_split_1
I0128 20:48:25.966861 19224 net.cpp:358] crop -> scorec
I0128 20:48:25.966867 19224 net.cpp:98] Setting up crop
I0128 20:48:25.966898 19224 net.cpp:105] Top shape: 1 2 321 481 (308802)
I0128 20:48:25.966904 19224 layer_factory.hpp:78] Creating layer loss
I0128 20:48:25.966910 19224 net.cpp:69] Creating Layer loss
I0128 20:48:25.966914 19224 net.cpp:396] loss <- scorec
I0128 20:48:25.966919 19224 net.cpp:396] loss <- label
I0128 20:48:25.966925 19224 net.cpp:358] loss -> loss
I0128 20:48:25.966931 19224 net.cpp:98] Setting up loss
I0128 20:48:25.966938 19224 net.cpp:105] Top shape: 1 1 1 1 (1)
I0128 20:48:25.966943 19224 net.cpp:111]     with loss weight 1
I0128 20:48:25.966951 19224 layer_factory.hpp:78] Creating layer prob
I0128 20:48:25.966958 19224 net.cpp:69] Creating Layer prob
I0128 20:48:25.966961 19224 net.cpp:396] prob <- score_score_0_split_1
I0128 20:48:25.966967 19224 net.cpp:358] prob -> prob
I0128 20:48:25.966972 19224 net.cpp:98] Setting up prob
I0128 20:48:25.966977 19224 net.cpp:105] Top shape: 1 2 332 492 (326688)
I0128 20:48:25.966981 19224 layer_factory.hpp:78] Creating layer silence-prob
I0128 20:48:25.966986 19224 net.cpp:69] Creating Layer silence-prob
I0128 20:48:25.966990 19224 net.cpp:396] silence-prob <- prob
I0128 20:48:25.966995 19224 net.cpp:98] Setting up silence-prob
I0128 20:48:25.967002 19224 net.cpp:174] silence-prob does not need backward computation.
I0128 20:48:25.967006 19224 net.cpp:174] prob does not need backward computation.
…
