…
I0131 21:15:45.405287 17125 net.cpp:39] Initializing net from parameters: 
name: "dpb"
layers {
  top: "data"
  name: "data"
  type: DATA
  data_param {
    source: "/home/shelhamer/dpb/data/bsd500/bsd500-train-multi-lmdb"
    batch_size: 1
    backend: LMDB
  }
  include {
    phase: TRAIN
  }
  transform_param {
    scale: 0.00390625
    mean_value: 109.9
    mean_value: 112.2
    mean_value: 93.8
  }
}
layers {
  top: "label"
  name: "label"
  type: DATA
  data_param {
    source: "/home/shelhamer/dpb/data/bsd500/bsd500-train-gt-denoise-lmdb"
    batch_size: 1
    backend: LMDB
  }
  include {
    phase: TRAIN
  }
}
layers {
  bottom: "data"
  top: "conv1_1"
  name: "conv1_1"
  type: CONVOLUTION
  blobs_lr: 0
  blobs_lr: 0
  weight_decay: 1
  weight_decay: 0
  convolution_param {
    num_output: 64
    pad: 1
    kernel_size: 3
    engine: CAFFE
  }
}
layers {
  bottom: "conv1_1"
  top: "conv1_1"
  name: "relu1_1"
  type: RELU
}
layers {
  bottom: "conv1_1"
  top: "conv1_2"
  name: "conv1_2"
  type: CONVOLUTION
  blobs_lr: 0
  blobs_lr: 0
  weight_decay: 1
  weight_decay: 0
  convolution_param {
    num_output: 64
    pad: 1
    kernel_size: 3
    engine: CAFFE
  }
}
layers {
  bottom: "conv1_2"
  top: "conv1_2"
  name: "relu1_2"
  type: RELU
}
layers {
  bottom: "conv1_2"
  top: "pool1"
  name: "pool1"
  type: POOLING
  pooling_param {
    pool: MAX
    kernel_size: 2
    stride: 2
  }
}
layers {
  bottom: "pool1"
  top: "conv2_1"
  name: "conv2_1"
  type: CONVOLUTION
  blobs_lr: 0
  blobs_lr: 0
  weight_decay: 1
  weight_decay: 0
  convolution_param {
    num_output: 128
    pad: 1
    kernel_size: 3
    engine: CAFFE
  }
}
layers {
  bottom: "conv2_1"
  top: "conv2_1"
  name: "relu2_1"
  type: RELU
}
layers {
  bottom: "conv2_1"
  top: "conv2_2"
  name: "conv2_2"
  type: CONVOLUTION
  blobs_lr: 0
  blobs_lr: 0
  weight_decay: 1
  weight_decay: 0
  convolution_param {
    num_output: 128
    pad: 1
    kernel_size: 3
    engine: CAFFE
  }
}
layers {
  bottom: "conv2_2"
  top: "conv2_2"
  name: "relu2_2"
  type: RELU
}
layers {
  bottom: "conv2_2"
  top: "pool2"
  name: "pool2"
  type: POOLING
  pooling_param {
    pool: MAX
    kernel_size: 2
    stride: 2
  }
}
layers {
  bottom: "pool2"
  top: "conv3_1"
  name: "conv3_1"
  type: CONVOLUTION
  blobs_lr: 0
  blobs_lr: 0
  weight_decay: 1
  weight_decay: 0
  convolution_param {
    num_output: 256
    pad: 1
    kernel_size: 3
    engine: CAFFE
  }
}
layers {
  bottom: "conv3_1"
  top: "conv3_1"
  name: "relu3_1"
  type: RELU
}
layers {
  bottom: "conv3_1"
  top: "conv3_2"
  name: "conv3_2"
  type: CONVOLUTION
  blobs_lr: 0
  blobs_lr: 0
  weight_decay: 1
  weight_decay: 0
  convolution_param {
    num_output: 256
    pad: 1
    kernel_size: 3
    engine: CAFFE
  }
}
layers {
  bottom: "conv3_2"
  top: "conv3_3"
  name: "conv3_3"
  type: CONVOLUTION
  blobs_lr: 0
  blobs_lr: 0
  weight_decay: 1
  weight_decay: 0
  convolution_param {
    num_output: 256
    pad: 1
    kernel_size: 3
    engine: CAFFE
  }
}
layers {
  bottom: "conv3_3"
  top: "conv3_3"
  name: "relu3_3"
  type: RELU
}
layers {
  bottom: "conv3_1"
  top: "score-conv3_1"
  name: "score-conv3_1"
  type: CONVOLUTION
  blobs_lr: 1
  blobs_lr: 2
  weight_decay: 1
  weight_decay: 0
  convolution_param {
    num_output: 2
    kernel_size: 1
    engine: CAFFE
  }
}
layers {
  bottom: "conv3_2"
  top: "score-conv3_2"
  name: "score-conv3_2"
  type: CONVOLUTION
  blobs_lr: 1
  blobs_lr: 2
  weight_decay: 1
  weight_decay: 0
  convolution_param {
    num_output: 2
    kernel_size: 1
    engine: CAFFE
  }
}
layers {
  bottom: "conv3_3"
  top: "score-conv3_3"
  name: "score-conv3_3"
  type: CONVOLUTION
  blobs_lr: 1
  blobs_lr: 2
  weight_decay: 1
  weight_decay: 0
  convolution_param {
    num_output: 2
    kernel_size: 1
    engine: CAFFE
  }
}
layers {
  bottom: "score-conv3_1"
  bottom: "score-conv3_2"
  bottom: "score-conv3_3"
  top: "score-conv3"
  name: "fuse-conv3"
  type: ELTWISE
  eltwise_param {
    operation: SUM
  }
}
layers {
  bottom: "score-conv3"
  top: "upscore-conv3"
  name: "upscore-conv3"
  type: DECONVOLUTION
  blobs_lr: 0
  blobs_lr: 0
  convolution_param {
    num_output: 2
    kernel_size: 4
    stride: 2
  }
}
layers {
  bottom: "upscore-conv3"
  bottom: "pool1"
  top: "upscore-conv3c"
  name: "crop-upscore-conv3"
  type: CROP
}
layers {
  bottom: "conv2_1"
  top: "score-conv2_1"
  name: "score-conv2_1"
  type: CONVOLUTION
  blobs_lr: 1
  blobs_lr: 2
  weight_decay: 1
  weight_decay: 0
  convolution_param {
    num_output: 2
    kernel_size: 1
    engine: CAFFE
  }
}
layers {
  bottom: "conv2_2"
  top: "score-conv2_2"
  name: "score-conv2_2"
  type: CONVOLUTION
  blobs_lr: 1
  blobs_lr: 2
  weight_decay: 1
  weight_decay: 0
  convolution_param {
    num_output: 2
    kernel_size: 1
    engine: CAFFE
  }
}
layers {
  bottom: "score-conv2_1"
  bottom: "score-conv2_2"
  bottom: "upscore-conv3c"
  top: "score-conv2,3"
  name: "fuse-conv2,3"
  type: ELTWISE
  eltwise_param {
    operation: SUM
  }
}
layers {
  bottom: "score-conv2,3"
  top: "upscore-conv2,3"
  name: "upscore-conv2,3"
  type: DECONVOLUTION
  blobs_lr: 0
  blobs_lr: 0
  convolution_param {
    num_output: 2
    kernel_size: 4
    stride: 2
  }
}
layers {
  bottom: "upscore-conv2,3"
  bottom: "conv1_1"
  top: "upscore-conv2,3c"
  name: "crop-upscore-conv2,3"
  type: CROP
}
layers {
  bottom: "conv1_1"
  top: "score-conv1_1"
  name: "score-conv1_1"
  type: CONVOLUTION
  blobs_lr: 1
  blobs_lr: 2
  weight_decay: 1
  weight_decay: 0
  convolution_param {
    num_output: 2
    kernel_size: 1
    engine: CAFFE
  }
}
layers {
  bottom: "conv1_2"
  top: "score-conv1_2"
  name: "score-conv1_2"
  type: CONVOLUTION
  blobs_lr: 1
  blobs_lr: 2
  weight_decay: 1
  weight_decay: 0
  convolution_param {
    num_output: 2
    kernel_size: 1
    engine: CAFFE
  }
}
layers {
  bottom: "score-conv1_1"
  bottom: "score-conv1_2"
  bottom: "upscore-conv2,3c"
  top: "score"
  name: "fuse-conv1,2,3"
  type: ELTWISE
  eltwise_param {
    operation: SUM
  }
}
layers {
  bottom: "score"
  bottom: "label"
  top: "loss"
  name: "loss"
  type: SOFTMAX_LOSS
  loss_param {
    ignore_label: 255
    normalize: false
  }
}
state {
  phase: TRAIN
}
I0131 21:15:45.405433 17125 layer_factory.hpp:78] Creating layer data
I0131 21:15:45.405450 17125 net.cpp:69] Creating Layer data
I0131 21:15:45.405457 17125 net.cpp:358] data -> data
I0131 21:15:45.405469 17125 net.cpp:98] Setting up data
I0131 21:15:45.405478 17125 data_layer.cpp:34] Opening dataset /home/shelhamer/dpb/data/bsd500/bsd500-train-multi-lmdb
I0131 21:15:45.405901 17125 data_layer.cpp:73] output data size: 1,3,481,321
I0131 21:15:45.406293 17125 net.cpp:105] Top shape: 1 3 481 321 (463203)
I0131 21:15:45.406301 17125 layer_factory.hpp:78] Creating layer label
I0131 21:15:45.406307 17125 net.cpp:69] Creating Layer label
I0131 21:15:45.406312 17125 net.cpp:358] label -> label
I0131 21:15:45.406319 17125 net.cpp:98] Setting up label
I0131 21:15:45.406322 17125 data_layer.cpp:34] Opening dataset /home/shelhamer/dpb/data/bsd500/bsd500-train-gt-denoise-lmdb
I0131 21:15:45.406532 17125 data_layer.cpp:73] output data size: 1,1,481,321
I0131 21:15:45.406862 17125 net.cpp:105] Top shape: 1 1 481 321 (154401)
I0131 21:15:45.406868 17125 layer_factory.hpp:78] Creating layer conv1_1
I0131 21:15:45.406900 17125 net.cpp:69] Creating Layer conv1_1
I0131 21:15:45.406905 17125 net.cpp:396] conv1_1 <- data
I0131 21:15:45.406913 17125 net.cpp:358] conv1_1 -> conv1_1
I0131 21:15:45.406920 17125 net.cpp:98] Setting up conv1_1
I0131 21:15:45.407237 17125 net.cpp:105] Top shape: 1 64 481 321 (9881664)
I0131 21:15:45.407251 17125 layer_factory.hpp:78] Creating layer relu1_1
I0131 21:15:45.407258 17125 net.cpp:69] Creating Layer relu1_1
I0131 21:15:45.407260 17125 net.cpp:396] relu1_1 <- conv1_1
I0131 21:15:45.407276 17125 net.cpp:347] relu1_1 -> conv1_1 (in-place)
I0131 21:15:45.407282 17125 net.cpp:98] Setting up relu1_1
I0131 21:15:45.407286 17125 net.cpp:105] Top shape: 1 64 481 321 (9881664)
I0131 21:15:45.407290 17125 layer_factory.hpp:78] Creating layer conv1_1_relu1_1_0_split
I0131 21:15:45.407295 17125 net.cpp:69] Creating Layer conv1_1_relu1_1_0_split
I0131 21:15:45.407299 17125 net.cpp:396] conv1_1_relu1_1_0_split <- conv1_1
I0131 21:15:45.407304 17125 net.cpp:358] conv1_1_relu1_1_0_split -> conv1_1_relu1_1_0_split_0
I0131 21:15:45.407310 17125 net.cpp:358] conv1_1_relu1_1_0_split -> conv1_1_relu1_1_0_split_1
I0131 21:15:45.407317 17125 net.cpp:358] conv1_1_relu1_1_0_split -> conv1_1_relu1_1_0_split_2
I0131 21:15:45.407322 17125 net.cpp:98] Setting up conv1_1_relu1_1_0_split
I0131 21:15:45.407328 17125 net.cpp:105] Top shape: 1 64 481 321 (9881664)
I0131 21:15:45.407332 17125 net.cpp:105] Top shape: 1 64 481 321 (9881664)
I0131 21:15:45.407335 17125 net.cpp:105] Top shape: 1 64 481 321 (9881664)
I0131 21:15:45.407340 17125 layer_factory.hpp:78] Creating layer conv1_2
I0131 21:15:45.407343 17125 net.cpp:69] Creating Layer conv1_2
I0131 21:15:45.407347 17125 net.cpp:396] conv1_2 <- conv1_1_relu1_1_0_split_0
I0131 21:15:45.407353 17125 net.cpp:358] conv1_2 -> conv1_2
I0131 21:15:45.407358 17125 net.cpp:98] Setting up conv1_2
I0131 21:15:45.407691 17125 net.cpp:105] Top shape: 1 64 481 321 (9881664)
I0131 21:15:45.407711 17125 layer_factory.hpp:78] Creating layer relu1_2
I0131 21:15:45.407716 17125 net.cpp:69] Creating Layer relu1_2
I0131 21:15:45.407721 17125 net.cpp:396] relu1_2 <- conv1_2
I0131 21:15:45.407724 17125 net.cpp:347] relu1_2 -> conv1_2 (in-place)
I0131 21:15:45.407732 17125 net.cpp:98] Setting up relu1_2
I0131 21:15:45.407735 17125 net.cpp:105] Top shape: 1 64 481 321 (9881664)
I0131 21:15:45.407738 17125 layer_factory.hpp:78] Creating layer conv1_2_relu1_2_0_split
I0131 21:15:45.407742 17125 net.cpp:69] Creating Layer conv1_2_relu1_2_0_split
I0131 21:15:45.407745 17125 net.cpp:396] conv1_2_relu1_2_0_split <- conv1_2
I0131 21:15:45.407750 17125 net.cpp:358] conv1_2_relu1_2_0_split -> conv1_2_relu1_2_0_split_0
I0131 21:15:45.407757 17125 net.cpp:358] conv1_2_relu1_2_0_split -> conv1_2_relu1_2_0_split_1
I0131 21:15:45.407762 17125 net.cpp:98] Setting up conv1_2_relu1_2_0_split
I0131 21:15:45.407765 17125 net.cpp:105] Top shape: 1 64 481 321 (9881664)
I0131 21:15:45.407769 17125 net.cpp:105] Top shape: 1 64 481 321 (9881664)
I0131 21:15:45.407773 17125 layer_factory.hpp:78] Creating layer pool1
I0131 21:15:45.407780 17125 net.cpp:69] Creating Layer pool1
I0131 21:15:45.407784 17125 net.cpp:396] pool1 <- conv1_2_relu1_2_0_split_0
I0131 21:15:45.407789 17125 net.cpp:358] pool1 -> pool1
I0131 21:15:45.407794 17125 net.cpp:98] Setting up pool1
I0131 21:15:45.407809 17125 net.cpp:105] Top shape: 1 64 241 161 (2483264)
I0131 21:15:45.407812 17125 layer_factory.hpp:78] Creating layer pool1_pool1_0_split
I0131 21:15:45.407819 17125 net.cpp:69] Creating Layer pool1_pool1_0_split
I0131 21:15:45.407821 17125 net.cpp:396] pool1_pool1_0_split <- pool1
I0131 21:15:45.407826 17125 net.cpp:358] pool1_pool1_0_split -> pool1_pool1_0_split_0
I0131 21:15:45.407832 17125 net.cpp:358] pool1_pool1_0_split -> pool1_pool1_0_split_1
I0131 21:15:45.407837 17125 net.cpp:98] Setting up pool1_pool1_0_split
I0131 21:15:45.407840 17125 net.cpp:105] Top shape: 1 64 241 161 (2483264)
I0131 21:15:45.407845 17125 net.cpp:105] Top shape: 1 64 241 161 (2483264)
I0131 21:15:45.407847 17125 layer_factory.hpp:78] Creating layer conv2_1
I0131 21:15:45.407852 17125 net.cpp:69] Creating Layer conv2_1
I0131 21:15:45.407855 17125 net.cpp:396] conv2_1 <- pool1_pool1_0_split_0
I0131 21:15:45.407862 17125 net.cpp:358] conv2_1 -> conv2_1
I0131 21:15:45.407867 17125 net.cpp:98] Setting up conv2_1
I0131 21:15:45.408088 17125 net.cpp:105] Top shape: 1 128 241 161 (4966528)
I0131 21:15:45.408100 17125 layer_factory.hpp:78] Creating layer relu2_1
I0131 21:15:45.408105 17125 net.cpp:69] Creating Layer relu2_1
I0131 21:15:45.408109 17125 net.cpp:396] relu2_1 <- conv2_1
I0131 21:15:45.408114 17125 net.cpp:347] relu2_1 -> conv2_1 (in-place)
I0131 21:15:45.408118 17125 net.cpp:98] Setting up relu2_1
I0131 21:15:45.408123 17125 net.cpp:105] Top shape: 1 128 241 161 (4966528)
I0131 21:15:45.408125 17125 layer_factory.hpp:78] Creating layer conv2_1_relu2_1_0_split
I0131 21:15:45.408130 17125 net.cpp:69] Creating Layer conv2_1_relu2_1_0_split
I0131 21:15:45.408133 17125 net.cpp:396] conv2_1_relu2_1_0_split <- conv2_1
I0131 21:15:45.408138 17125 net.cpp:358] conv2_1_relu2_1_0_split -> conv2_1_relu2_1_0_split_0
I0131 21:15:45.408144 17125 net.cpp:358] conv2_1_relu2_1_0_split -> conv2_1_relu2_1_0_split_1
I0131 21:15:45.408149 17125 net.cpp:98] Setting up conv2_1_relu2_1_0_split
I0131 21:15:45.408154 17125 net.cpp:105] Top shape: 1 128 241 161 (4966528)
I0131 21:15:45.408156 17125 net.cpp:105] Top shape: 1 128 241 161 (4966528)
I0131 21:15:45.408160 17125 layer_factory.hpp:78] Creating layer conv2_2
I0131 21:15:45.408165 17125 net.cpp:69] Creating Layer conv2_2
I0131 21:15:45.408169 17125 net.cpp:396] conv2_2 <- conv2_1_relu2_1_0_split_0
I0131 21:15:45.408174 17125 net.cpp:358] conv2_2 -> conv2_2
I0131 21:15:45.408179 17125 net.cpp:98] Setting up conv2_2
I0131 21:15:45.408507 17125 net.cpp:105] Top shape: 1 128 241 161 (4966528)
I0131 21:15:45.408516 17125 layer_factory.hpp:78] Creating layer relu2_2
I0131 21:15:45.408521 17125 net.cpp:69] Creating Layer relu2_2
I0131 21:15:45.408525 17125 net.cpp:396] relu2_2 <- conv2_2
I0131 21:15:45.408531 17125 net.cpp:347] relu2_2 -> conv2_2 (in-place)
I0131 21:15:45.408536 17125 net.cpp:98] Setting up relu2_2
I0131 21:15:45.408540 17125 net.cpp:105] Top shape: 1 128 241 161 (4966528)
I0131 21:15:45.408543 17125 layer_factory.hpp:78] Creating layer conv2_2_relu2_2_0_split
I0131 21:15:45.408547 17125 net.cpp:69] Creating Layer conv2_2_relu2_2_0_split
I0131 21:15:45.408551 17125 net.cpp:396] conv2_2_relu2_2_0_split <- conv2_2
I0131 21:15:45.408555 17125 net.cpp:358] conv2_2_relu2_2_0_split -> conv2_2_relu2_2_0_split_0
I0131 21:15:45.408565 17125 net.cpp:358] conv2_2_relu2_2_0_split -> conv2_2_relu2_2_0_split_1
I0131 21:15:45.408571 17125 net.cpp:98] Setting up conv2_2_relu2_2_0_split
I0131 21:15:45.408574 17125 net.cpp:105] Top shape: 1 128 241 161 (4966528)
I0131 21:15:45.408577 17125 net.cpp:105] Top shape: 1 128 241 161 (4966528)
I0131 21:15:45.408581 17125 layer_factory.hpp:78] Creating layer pool2
I0131 21:15:45.408586 17125 net.cpp:69] Creating Layer pool2
I0131 21:15:45.408591 17125 net.cpp:396] pool2 <- conv2_2_relu2_2_0_split_0
I0131 21:15:45.408594 17125 net.cpp:358] pool2 -> pool2
I0131 21:15:45.408599 17125 net.cpp:98] Setting up pool2
I0131 21:15:45.408606 17125 net.cpp:105] Top shape: 1 128 121 81 (1254528)
I0131 21:15:45.408609 17125 layer_factory.hpp:78] Creating layer conv3_1
I0131 21:15:45.408613 17125 net.cpp:69] Creating Layer conv3_1
I0131 21:15:45.408617 17125 net.cpp:396] conv3_1 <- pool2
I0131 21:15:45.408623 17125 net.cpp:358] conv3_1 -> conv3_1
I0131 21:15:45.408628 17125 net.cpp:98] Setting up conv3_1
I0131 21:15:45.409081 17125 net.cpp:105] Top shape: 1 256 121 81 (2509056)
I0131 21:15:45.409091 17125 layer_factory.hpp:78] Creating layer relu3_1
I0131 21:15:45.409096 17125 net.cpp:69] Creating Layer relu3_1
I0131 21:15:45.409101 17125 net.cpp:396] relu3_1 <- conv3_1
I0131 21:15:45.409106 17125 net.cpp:347] relu3_1 -> conv3_1 (in-place)
I0131 21:15:45.409109 17125 net.cpp:98] Setting up relu3_1
I0131 21:15:45.409113 17125 net.cpp:105] Top shape: 1 256 121 81 (2509056)
I0131 21:15:45.409116 17125 layer_factory.hpp:78] Creating layer conv3_1_relu3_1_0_split
I0131 21:15:45.409123 17125 net.cpp:69] Creating Layer conv3_1_relu3_1_0_split
I0131 21:15:45.409126 17125 net.cpp:396] conv3_1_relu3_1_0_split <- conv3_1
I0131 21:15:45.409132 17125 net.cpp:358] conv3_1_relu3_1_0_split -> conv3_1_relu3_1_0_split_0
I0131 21:15:45.409137 17125 net.cpp:358] conv3_1_relu3_1_0_split -> conv3_1_relu3_1_0_split_1
I0131 21:15:45.409142 17125 net.cpp:98] Setting up conv3_1_relu3_1_0_split
I0131 21:15:45.409147 17125 net.cpp:105] Top shape: 1 256 121 81 (2509056)
I0131 21:15:45.409149 17125 net.cpp:105] Top shape: 1 256 121 81 (2509056)
I0131 21:15:45.409152 17125 layer_factory.hpp:78] Creating layer conv3_2
I0131 21:15:45.409158 17125 net.cpp:69] Creating Layer conv3_2
I0131 21:15:45.409162 17125 net.cpp:396] conv3_2 <- conv3_1_relu3_1_0_split_0
I0131 21:15:45.409168 17125 net.cpp:358] conv3_2 -> conv3_2
I0131 21:15:45.409173 17125 net.cpp:98] Setting up conv3_2
I0131 21:15:45.409698 17125 net.cpp:105] Top shape: 1 256 121 81 (2509056)
I0131 21:15:45.409708 17125 layer_factory.hpp:78] Creating layer conv3_2_conv3_2_0_split
I0131 21:15:45.409713 17125 net.cpp:69] Creating Layer conv3_2_conv3_2_0_split
I0131 21:15:45.409716 17125 net.cpp:396] conv3_2_conv3_2_0_split <- conv3_2
I0131 21:15:45.409723 17125 net.cpp:358] conv3_2_conv3_2_0_split -> conv3_2_conv3_2_0_split_0
I0131 21:15:45.409729 17125 net.cpp:358] conv3_2_conv3_2_0_split -> conv3_2_conv3_2_0_split_1
I0131 21:15:45.409734 17125 net.cpp:98] Setting up conv3_2_conv3_2_0_split
I0131 21:15:45.409739 17125 net.cpp:105] Top shape: 1 256 121 81 (2509056)
I0131 21:15:45.409741 17125 net.cpp:105] Top shape: 1 256 121 81 (2509056)
I0131 21:15:45.409744 17125 layer_factory.hpp:78] Creating layer conv3_3
I0131 21:15:45.409749 17125 net.cpp:69] Creating Layer conv3_3
I0131 21:15:45.409752 17125 net.cpp:396] conv3_3 <- conv3_2_conv3_2_0_split_0
I0131 21:15:45.409757 17125 net.cpp:358] conv3_3 -> conv3_3
I0131 21:15:45.409762 17125 net.cpp:98] Setting up conv3_3
I0131 21:15:45.410711 17125 net.cpp:105] Top shape: 1 256 121 81 (2509056)
I0131 21:15:45.410727 17125 layer_factory.hpp:78] Creating layer relu3_3
I0131 21:15:45.410735 17125 net.cpp:69] Creating Layer relu3_3
I0131 21:15:45.410739 17125 net.cpp:396] relu3_3 <- conv3_3
I0131 21:15:45.410745 17125 net.cpp:347] relu3_3 -> conv3_3 (in-place)
I0131 21:15:45.410751 17125 net.cpp:98] Setting up relu3_3
I0131 21:15:45.410755 17125 net.cpp:105] Top shape: 1 256 121 81 (2509056)
I0131 21:15:45.410759 17125 layer_factory.hpp:78] Creating layer score-conv3_1
I0131 21:15:45.410768 17125 net.cpp:69] Creating Layer score-conv3_1
I0131 21:15:45.410771 17125 net.cpp:396] score-conv3_1 <- conv3_1_relu3_1_0_split_1
I0131 21:15:45.410776 17125 net.cpp:358] score-conv3_1 -> score-conv3_1
I0131 21:15:45.410784 17125 net.cpp:98] Setting up score-conv3_1
I0131 21:15:45.410807 17125 net.cpp:105] Top shape: 1 2 121 81 (19602)
I0131 21:15:45.410815 17125 layer_factory.hpp:78] Creating layer score-conv3_2
I0131 21:15:45.410820 17125 net.cpp:69] Creating Layer score-conv3_2
I0131 21:15:45.410825 17125 net.cpp:396] score-conv3_2 <- conv3_2_conv3_2_0_split_1
I0131 21:15:45.410831 17125 net.cpp:358] score-conv3_2 -> score-conv3_2
I0131 21:15:45.410836 17125 net.cpp:98] Setting up score-conv3_2
I0131 21:15:45.410950 17125 net.cpp:105] Top shape: 1 2 121 81 (19602)
I0131 21:15:45.410964 17125 layer_factory.hpp:78] Creating layer score-conv3_3
I0131 21:15:45.410969 17125 net.cpp:69] Creating Layer score-conv3_3
I0131 21:15:45.410972 17125 net.cpp:396] score-conv3_3 <- conv3_3
I0131 21:15:45.410977 17125 net.cpp:358] score-conv3_3 -> score-conv3_3
I0131 21:15:45.410982 17125 net.cpp:98] Setting up score-conv3_3
I0131 21:15:45.411003 17125 net.cpp:105] Top shape: 1 2 121 81 (19602)
I0131 21:15:45.411010 17125 layer_factory.hpp:78] Creating layer fuse-conv3
I0131 21:15:45.411018 17125 net.cpp:69] Creating Layer fuse-conv3
I0131 21:15:45.411022 17125 net.cpp:396] fuse-conv3 <- score-conv3_1
I0131 21:15:45.411027 17125 net.cpp:396] fuse-conv3 <- score-conv3_2
I0131 21:15:45.411031 17125 net.cpp:396] fuse-conv3 <- score-conv3_3
I0131 21:15:45.411036 17125 net.cpp:358] fuse-conv3 -> score-conv3
I0131 21:15:45.411041 17125 net.cpp:98] Setting up fuse-conv3
I0131 21:15:45.411048 17125 net.cpp:105] Top shape: 1 2 121 81 (19602)
I0131 21:15:45.411052 17125 layer_factory.hpp:78] Creating layer upscore-conv3
I0131 21:15:45.411058 17125 net.cpp:69] Creating Layer upscore-conv3
I0131 21:15:45.411062 17125 net.cpp:396] upscore-conv3 <- score-conv3
I0131 21:15:45.411068 17125 net.cpp:358] upscore-conv3 -> upscore-conv3
I0131 21:15:45.411073 17125 net.cpp:98] Setting up upscore-conv3
I0131 21:15:45.411140 17125 net.cpp:105] Top shape: 1 2 244 164 (80032)
I0131 21:15:45.411150 17125 layer_factory.hpp:78] Creating layer crop-upscore-conv3
I0131 21:15:45.411156 17125 net.cpp:69] Creating Layer crop-upscore-conv3
I0131 21:15:45.411159 17125 net.cpp:396] crop-upscore-conv3 <- upscore-conv3
I0131 21:15:45.411164 17125 net.cpp:396] crop-upscore-conv3 <- pool1_pool1_0_split_1
I0131 21:15:45.411170 17125 net.cpp:358] crop-upscore-conv3 -> upscore-conv3c
I0131 21:15:45.411175 17125 net.cpp:98] Setting up crop-upscore-conv3
I0131 21:15:45.411211 17125 net.cpp:105] Top shape: 1 2 241 161 (77602)
I0131 21:15:45.411216 17125 layer_factory.hpp:78] Creating layer score-conv2_1
I0131 21:15:45.411221 17125 net.cpp:69] Creating Layer score-conv2_1
I0131 21:15:45.411226 17125 net.cpp:396] score-conv2_1 <- conv2_1_relu2_1_0_split_1
I0131 21:15:45.411231 17125 net.cpp:358] score-conv2_1 -> score-conv2_1
I0131 21:15:45.411239 17125 net.cpp:98] Setting up score-conv2_1
I0131 21:15:45.411300 17125 net.cpp:105] Top shape: 1 2 241 161 (77602)
I0131 21:15:45.411309 17125 layer_factory.hpp:78] Creating layer score-conv2_2
I0131 21:15:45.411314 17125 net.cpp:69] Creating Layer score-conv2_2
I0131 21:15:45.411317 17125 net.cpp:396] score-conv2_2 <- conv2_2_relu2_2_0_split_1
I0131 21:15:45.411324 17125 net.cpp:358] score-conv2_2 -> score-conv2_2
I0131 21:15:45.411329 17125 net.cpp:98] Setting up score-conv2_2
I0131 21:15:45.411386 17125 net.cpp:105] Top shape: 1 2 241 161 (77602)
I0131 21:15:45.411394 17125 layer_factory.hpp:78] Creating layer fuse-conv2,3
I0131 21:15:45.411402 17125 net.cpp:69] Creating Layer fuse-conv2,3
I0131 21:15:45.411406 17125 net.cpp:396] fuse-conv2,3 <- score-conv2_1
I0131 21:15:45.411412 17125 net.cpp:396] fuse-conv2,3 <- score-conv2_2
I0131 21:15:45.411417 17125 net.cpp:396] fuse-conv2,3 <- upscore-conv3c
I0131 21:15:45.411422 17125 net.cpp:358] fuse-conv2,3 -> score-conv2,3
I0131 21:15:45.411427 17125 net.cpp:98] Setting up fuse-conv2,3
I0131 21:15:45.411432 17125 net.cpp:105] Top shape: 1 2 241 161 (77602)
I0131 21:15:45.411434 17125 layer_factory.hpp:78] Creating layer upscore-conv2,3
I0131 21:15:45.411439 17125 net.cpp:69] Creating Layer upscore-conv2,3
I0131 21:15:45.411443 17125 net.cpp:396] upscore-conv2,3 <- score-conv2,3
I0131 21:15:45.411449 17125 net.cpp:358] upscore-conv2,3 -> upscore-conv2,3
I0131 21:15:45.411454 17125 net.cpp:98] Setting up upscore-conv2,3
I0131 21:15:45.411661 17125 net.cpp:105] Top shape: 1 2 484 324 (313632)
I0131 21:15:45.411670 17125 layer_factory.hpp:78] Creating layer crop-upscore-conv2,3
I0131 21:15:45.411679 17125 net.cpp:69] Creating Layer crop-upscore-conv2,3
I0131 21:15:45.411684 17125 net.cpp:396] crop-upscore-conv2,3 <- upscore-conv2,3
I0131 21:15:45.411689 17125 net.cpp:396] crop-upscore-conv2,3 <- conv1_1_relu1_1_0_split_1
I0131 21:15:45.411695 17125 net.cpp:358] crop-upscore-conv2,3 -> upscore-conv2,3c
I0131 21:15:45.411700 17125 net.cpp:98] Setting up crop-upscore-conv2,3
I0131 21:15:45.411723 17125 net.cpp:105] Top shape: 1 2 481 321 (308802)
I0131 21:15:45.411727 17125 layer_factory.hpp:78] Creating layer score-conv1_1
I0131 21:15:45.411732 17125 net.cpp:69] Creating Layer score-conv1_1
I0131 21:15:45.411736 17125 net.cpp:396] score-conv1_1 <- conv1_1_relu1_1_0_split_2
I0131 21:15:45.411741 17125 net.cpp:358] score-conv1_1 -> score-conv1_1
I0131 21:15:45.411746 17125 net.cpp:98] Setting up score-conv1_1
I0131 21:15:45.411955 17125 net.cpp:105] Top shape: 1 2 481 321 (308802)
I0131 21:15:45.411963 17125 layer_factory.hpp:78] Creating layer score-conv1_2
I0131 21:15:45.411970 17125 net.cpp:69] Creating Layer score-conv1_2
I0131 21:15:45.411973 17125 net.cpp:396] score-conv1_2 <- conv1_2_relu1_2_0_split_1
I0131 21:15:45.411979 17125 net.cpp:358] score-conv1_2 -> score-conv1_2
I0131 21:15:45.411984 17125 net.cpp:98] Setting up score-conv1_2
I0131 21:15:45.412196 17125 net.cpp:105] Top shape: 1 2 481 321 (308802)
I0131 21:15:45.412205 17125 layer_factory.hpp:78] Creating layer fuse-conv1,2,3
I0131 21:15:45.412210 17125 net.cpp:69] Creating Layer fuse-conv1,2,3
I0131 21:15:45.412214 17125 net.cpp:396] fuse-conv1,2,3 <- score-conv1_1
I0131 21:15:45.412219 17125 net.cpp:396] fuse-conv1,2,3 <- score-conv1_2
I0131 21:15:45.412222 17125 net.cpp:396] fuse-conv1,2,3 <- upscore-conv2,3c
I0131 21:15:45.412236 17125 net.cpp:358] fuse-conv1,2,3 -> score
I0131 21:15:45.412242 17125 net.cpp:98] Setting up fuse-conv1,2,3
I0131 21:15:45.412246 17125 net.cpp:105] Top shape: 1 2 481 321 (308802)
I0131 21:15:45.412250 17125 layer_factory.hpp:78] Creating layer loss
I0131 21:15:45.412258 17125 net.cpp:69] Creating Layer loss
I0131 21:15:45.412262 17125 net.cpp:396] loss <- score
I0131 21:15:45.412266 17125 net.cpp:396] loss <- label
I0131 21:15:45.412271 17125 net.cpp:358] loss -> loss
I0131 21:15:45.412278 17125 net.cpp:98] Setting up loss
I0131 21:15:45.412286 17125 layer_factory.hpp:78] Creating layer loss
I0131 21:15:45.412699 17125 net.cpp:105] Top shape: 1 1 1 1 (1)
I0131 21:15:45.412705 17125 net.cpp:111]     with loss weight 1
I0131 21:15:45.412719 17125 net.cpp:172] loss needs backward computation.
I0131 21:15:45.412722 17125 net.cpp:172] fuse-conv1,2,3 needs backward computation.
I0131 21:15:45.412726 17125 net.cpp:172] score-conv1_2 needs backward computation.
I0131 21:15:45.412729 17125 net.cpp:172] score-conv1_1 needs backward computation.
I0131 21:15:45.412732 17125 net.cpp:172] crop-upscore-conv2,3 needs backward computation.
…
I0131 21:15:45.413765 17125 net.cpp:39] Initializing net from parameters: 
name: "dpb"
layers {
  top: "data"
  name: "data"
  type: DATA
  data_param {
    source: "/home/shelhamer/dpb/data/bsd500/bsd500-val-lmdb"
    batch_size: 1
    backend: LMDB
  }
  include {
    phase: TEST
  }
  transform_param {
    scale: 0.00390625
    mean_value: 109.9
    mean_value: 112.2
    mean_value: 93.8
  }
}
layers {
  top: "label"
  name: "label"
  type: DATA
  data_param {
    source: "/home/shelhamer/dpb/data/bsd500/bsd500-val-gt-union-lmdb"
    batch_size: 1
    backend: LMDB
  }
  include {
    phase: TEST
  }
}
layers {
  bottom: "data"
  top: "conv1_1"
  name: "conv1_1"
  type: CONVOLUTION
  blobs_lr: 0
  blobs_lr: 0
  weight_decay: 1
  weight_decay: 0
  convolution_param {
    num_output: 64
    pad: 1
    kernel_size: 3
    engine: CAFFE
  }
}
layers {
  bottom: "conv1_1"
  top: "conv1_1"
  name: "relu1_1"
  type: RELU
}
layers {
  bottom: "conv1_1"
  top: "conv1_2"
  name: "conv1_2"
  type: CONVOLUTION
  blobs_lr: 0
  blobs_lr: 0
  weight_decay: 1
  weight_decay: 0
  convolution_param {
    num_output: 64
    pad: 1
    kernel_size: 3
    engine: CAFFE
  }
}
layers {
  bottom: "conv1_2"
  top: "conv1_2"
  name: "relu1_2"
  type: RELU
}
layers {
  bottom: "conv1_2"
  top: "pool1"
  name: "pool1"
  type: POOLING
  pooling_param {
    pool: MAX
    kernel_size: 2
    stride: 2
  }
}
layers {
  bottom: "pool1"
  top: "conv2_1"
  name: "conv2_1"
  type: CONVOLUTION
  blobs_lr: 0
  blobs_lr: 0
  weight_decay: 1
  weight_decay: 0
  convolution_param {
    num_output: 128
    pad: 1
    kernel_size: 3
    engine: CAFFE
  }
}
layers {
  bottom: "conv2_1"
  top: "conv2_1"
  name: "relu2_1"
  type: RELU
}
layers {
  bottom: "conv2_1"
  top: "conv2_2"
  name: "conv2_2"
  type: CONVOLUTION
  blobs_lr: 0
  blobs_lr: 0
  weight_decay: 1
  weight_decay: 0
  convolution_param {
    num_output: 128
    pad: 1
    kernel_size: 3
    engine: CAFFE
  }
}
layers {
  bottom: "conv2_2"
  top: "conv2_2"
  name: "relu2_2"
  type: RELU
}
layers {
  bottom: "conv2_2"
  top: "pool2"
  name: "pool2"
  type: POOLING
  pooling_param {
    pool: MAX
    kernel_size: 2
    stride: 2
  }
}
layers {
  bottom: "pool2"
  top: "conv3_1"
  name: "conv3_1"
  type: CONVOLUTION
  blobs_lr: 0
  blobs_lr: 0
  weight_decay: 1
  weight_decay: 0
  convolution_param {
    num_output: 256
    pad: 1
    kernel_size: 3
    engine: CAFFE
  }
}
layers {
  bottom: "conv3_1"
  top: "conv3_1"
  name: "relu3_1"
  type: RELU
}
layers {
  bottom: "conv3_1"
  top: "conv3_2"
  name: "conv3_2"
  type: CONVOLUTION
  blobs_lr: 0
  blobs_lr: 0
  weight_decay: 1
  weight_decay: 0
  convolution_param {
    num_output: 256
    pad: 1
    kernel_size: 3
    engine: CAFFE
  }
}
layers {
  bottom: "conv3_2"
  top: "conv3_3"
  name: "conv3_3"
  type: CONVOLUTION
  blobs_lr: 0
  blobs_lr: 0
  weight_decay: 1
  weight_decay: 0
  convolution_param {
    num_output: 256
    pad: 1
    kernel_size: 3
    engine: CAFFE
  }
}
layers {
  bottom: "conv3_3"
  top: "conv3_3"
  name: "relu3_3"
  type: RELU
}
layers {
  bottom: "conv3_1"
  top: "score-conv3_1"
  name: "score-conv3_1"
  type: CONVOLUTION
  blobs_lr: 1
  blobs_lr: 2
  weight_decay: 1
  weight_decay: 0
  convolution_param {
    num_output: 2
    kernel_size: 1
    engine: CAFFE
  }
}
layers {
  bottom: "conv3_2"
  top: "score-conv3_2"
  name: "score-conv3_2"
  type: CONVOLUTION
  blobs_lr: 1
  blobs_lr: 2
  weight_decay: 1
  weight_decay: 0
  convolution_param {
    num_output: 2
    kernel_size: 1
    engine: CAFFE
  }
}
layers {
  bottom: "conv3_3"
  top: "score-conv3_3"
  name: "score-conv3_3"
  type: CONVOLUTION
  blobs_lr: 1
  blobs_lr: 2
  weight_decay: 1
  weight_decay: 0
  convolution_param {
    num_output: 2
    kernel_size: 1
    engine: CAFFE
  }
}
layers {
  bottom: "score-conv3_1"
  bottom: "score-conv3_2"
  bottom: "score-conv3_3"
  top: "score-conv3"
  name: "fuse-conv3"
  type: ELTWISE
  eltwise_param {
    operation: SUM
  }
}
layers {
  bottom: "score-conv3"
  top: "upscore-conv3"
  name: "upscore-conv3"
  type: DECONVOLUTION
  blobs_lr: 0
  blobs_lr: 0
  convolution_param {
    num_output: 2
    kernel_size: 4
    stride: 2
  }
}
layers {
  bottom: "upscore-conv3"
  bottom: "pool1"
  top: "upscore-conv3c"
  name: "crop-upscore-conv3"
  type: CROP
}
layers {
  bottom: "conv2_1"
  top: "score-conv2_1"
  name: "score-conv2_1"
  type: CONVOLUTION
  blobs_lr: 1
  blobs_lr: 2
  weight_decay: 1
  weight_decay: 0
  convolution_param {
    num_output: 2
    kernel_size: 1
    engine: CAFFE
  }
}
layers {
  bottom: "conv2_2"
  top: "score-conv2_2"
  name: "score-conv2_2"
  type: CONVOLUTION
  blobs_lr: 1
  blobs_lr: 2
  weight_decay: 1
  weight_decay: 0
  convolution_param {
    num_output: 2
    kernel_size: 1
    engine: CAFFE
  }
}
layers {
  bottom: "score-conv2_1"
  bottom: "score-conv2_2"
  bottom: "upscore-conv3c"
  top: "score-conv2,3"
  name: "fuse-conv2,3"
  type: ELTWISE
  eltwise_param {
    operation: SUM
  }
}
layers {
  bottom: "score-conv2,3"
  top: "upscore-conv2,3"
  name: "upscore-conv2,3"
  type: DECONVOLUTION
  blobs_lr: 0
  blobs_lr: 0
  convolution_param {
    num_output: 2
    kernel_size: 4
    stride: 2
  }
}
layers {
  bottom: "upscore-conv2,3"
  bottom: "conv1_1"
  top: "upscore-conv2,3c"
  name: "crop-upscore-conv2,3"
  type: CROP
}
layers {
  bottom: "conv1_1"
  top: "score-conv1_1"
  name: "score-conv1_1"
  type: CONVOLUTION
  blobs_lr: 1
  blobs_lr: 2
  weight_decay: 1
  weight_decay: 0
  convolution_param {
    num_output: 2
    kernel_size: 1
    engine: CAFFE
  }
}
layers {
  bottom: "conv1_2"
  top: "score-conv1_2"
  name: "score-conv1_2"
  type: CONVOLUTION
  blobs_lr: 1
  blobs_lr: 2
  weight_decay: 1
  weight_decay: 0
  convolution_param {
    num_output: 2
    kernel_size: 1
    engine: CAFFE
  }
}
layers {
  bottom: "score-conv1_1"
  bottom: "score-conv1_2"
  bottom: "upscore-conv2,3c"
  top: "score"
  name: "fuse-conv1,2,3"
  type: ELTWISE
  eltwise_param {
    operation: SUM
  }
}
layers {
  bottom: "score"
  bottom: "label"
  top: "loss"
  name: "loss"
  type: SOFTMAX_LOSS
  loss_param {
    ignore_label: 255
    normalize: false
  }
}
layers {
  bottom: "score"
  top: "prob"
  name: "prob"
  type: SOFTMAX
  include {
    phase: TEST
  }
}
layers {
  bottom: "prob"
  name: "silence"
  type: SILENCE
  include {
    phase: TEST
  }
}
state {
  phase: TEST
}
I0131 21:15:45.413923 17125 layer_factory.hpp:78] Creating layer data
I0131 21:15:45.413933 17125 net.cpp:69] Creating Layer data
I0131 21:15:45.413939 17125 net.cpp:358] data -> data
I0131 21:15:45.413946 17125 net.cpp:98] Setting up data
I0131 21:15:45.413950 17125 data_layer.cpp:34] Opening dataset /home/shelhamer/dpb/data/bsd500/bsd500-val-lmdb
I0131 21:15:45.414355 17125 data_layer.cpp:73] output data size: 1,3,321,481
I0131 21:15:45.414844 17125 net.cpp:105] Top shape: 1 3 321 481 (463203)
I0131 21:15:45.414850 17125 layer_factory.hpp:78] Creating layer label
I0131 21:15:45.414858 17125 net.cpp:69] Creating Layer label
I0131 21:15:45.414862 17125 net.cpp:358] label -> label
I0131 21:15:45.414870 17125 net.cpp:98] Setting up label
I0131 21:15:45.414873 17125 data_layer.cpp:34] Opening dataset /home/shelhamer/dpb/data/bsd500/bsd500-val-gt-union-lmdb
I0131 21:15:45.414981 17125 data_layer.cpp:73] output data size: 1,1,321,481
I0131 21:15:45.415180 17125 net.cpp:105] Top shape: 1 1 321 481 (154401)
I0131 21:15:45.415186 17125 layer_factory.hpp:78] Creating layer conv1_1
I0131 21:15:45.415194 17125 net.cpp:69] Creating Layer conv1_1
I0131 21:15:45.415197 17125 net.cpp:396] conv1_1 <- data
I0131 21:15:45.415204 17125 net.cpp:358] conv1_1 -> conv1_1
I0131 21:15:45.415210 17125 net.cpp:98] Setting up conv1_1
I0131 21:15:45.415426 17125 net.cpp:105] Top shape: 1 64 321 481 (9881664)
I0131 21:15:45.415438 17125 layer_factory.hpp:78] Creating layer relu1_1
I0131 21:15:45.415443 17125 net.cpp:69] Creating Layer relu1_1
I0131 21:15:45.415447 17125 net.cpp:396] relu1_1 <- conv1_1
I0131 21:15:45.415452 17125 net.cpp:347] relu1_1 -> conv1_1 (in-place)
I0131 21:15:45.415457 17125 net.cpp:98] Setting up relu1_1
I0131 21:15:45.415462 17125 net.cpp:105] Top shape: 1 64 321 481 (9881664)
I0131 21:15:45.415464 17125 layer_factory.hpp:78] Creating layer conv1_1_relu1_1_0_split
I0131 21:15:45.415469 17125 net.cpp:69] Creating Layer conv1_1_relu1_1_0_split
I0131 21:15:45.415472 17125 net.cpp:396] conv1_1_relu1_1_0_split <- conv1_1
I0131 21:15:45.415477 17125 net.cpp:358] conv1_1_relu1_1_0_split -> conv1_1_relu1_1_0_split_0
I0131 21:15:45.415483 17125 net.cpp:358] conv1_1_relu1_1_0_split -> conv1_1_relu1_1_0_split_1
I0131 21:15:45.415489 17125 net.cpp:358] conv1_1_relu1_1_0_split -> conv1_1_relu1_1_0_split_2
I0131 21:15:45.415494 17125 net.cpp:98] Setting up conv1_1_relu1_1_0_split
I0131 21:15:45.415498 17125 net.cpp:105] Top shape: 1 64 321 481 (9881664)
I0131 21:15:45.415503 17125 net.cpp:105] Top shape: 1 64 321 481 (9881664)
I0131 21:15:45.415505 17125 net.cpp:105] Top shape: 1 64 321 481 (9881664)
I0131 21:15:45.415509 17125 layer_factory.hpp:78] Creating layer conv1_2
I0131 21:15:45.415513 17125 net.cpp:69] Creating Layer conv1_2
I0131 21:15:45.415518 17125 net.cpp:396] conv1_2 <- conv1_1_relu1_1_0_split_0
I0131 21:15:45.415521 17125 net.cpp:358] conv1_2 -> conv1_2
I0131 21:15:45.415529 17125 net.cpp:98] Setting up conv1_2
I0131 21:15:45.415753 17125 net.cpp:105] Top shape: 1 64 321 481 (9881664)
I0131 21:15:45.415763 17125 layer_factory.hpp:78] Creating layer relu1_2
I0131 21:15:45.415768 17125 net.cpp:69] Creating Layer relu1_2
I0131 21:15:45.415772 17125 net.cpp:396] relu1_2 <- conv1_2
I0131 21:15:45.415777 17125 net.cpp:347] relu1_2 -> conv1_2 (in-place)
I0131 21:15:45.415782 17125 net.cpp:98] Setting up relu1_2
I0131 21:15:45.415786 17125 net.cpp:105] Top shape: 1 64 321 481 (9881664)
I0131 21:15:45.415789 17125 layer_factory.hpp:78] Creating layer conv1_2_relu1_2_0_split
I0131 21:15:45.415793 17125 net.cpp:69] Creating Layer conv1_2_relu1_2_0_split
I0131 21:15:45.415796 17125 net.cpp:396] conv1_2_relu1_2_0_split <- conv1_2
I0131 21:15:45.415802 17125 net.cpp:358] conv1_2_relu1_2_0_split -> conv1_2_relu1_2_0_split_0
I0131 21:15:45.415807 17125 net.cpp:358] conv1_2_relu1_2_0_split -> conv1_2_relu1_2_0_split_1
I0131 21:15:45.415812 17125 net.cpp:98] Setting up conv1_2_relu1_2_0_split
I0131 21:15:45.415817 17125 net.cpp:105] Top shape: 1 64 321 481 (9881664)
I0131 21:15:45.415820 17125 net.cpp:105] Top shape: 1 64 321 481 (9881664)
I0131 21:15:45.415823 17125 layer_factory.hpp:78] Creating layer pool1
I0131 21:15:45.415829 17125 net.cpp:69] Creating Layer pool1
I0131 21:15:45.415832 17125 net.cpp:396] pool1 <- conv1_2_relu1_2_0_split_0
I0131 21:15:45.415838 17125 net.cpp:358] pool1 -> pool1
I0131 21:15:45.415843 17125 net.cpp:98] Setting up pool1
I0131 21:15:45.415848 17125 net.cpp:105] Top shape: 1 64 161 241 (2483264)
I0131 21:15:45.415853 17125 layer_factory.hpp:78] Creating layer pool1_pool1_0_split
I0131 21:15:45.415856 17125 net.cpp:69] Creating Layer pool1_pool1_0_split
I0131 21:15:45.415859 17125 net.cpp:396] pool1_pool1_0_split <- pool1
I0131 21:15:45.415864 17125 net.cpp:358] pool1_pool1_0_split -> pool1_pool1_0_split_0
I0131 21:15:45.415869 17125 net.cpp:358] pool1_pool1_0_split -> pool1_pool1_0_split_1
I0131 21:15:45.415874 17125 net.cpp:98] Setting up pool1_pool1_0_split
I0131 21:15:45.415879 17125 net.cpp:105] Top shape: 1 64 161 241 (2483264)
I0131 21:15:45.415882 17125 net.cpp:105] Top shape: 1 64 161 241 (2483264)
I0131 21:15:45.415885 17125 layer_factory.hpp:78] Creating layer conv2_1
I0131 21:15:45.415889 17125 net.cpp:69] Creating Layer conv2_1
I0131 21:15:45.415894 17125 net.cpp:396] conv2_1 <- pool1_pool1_0_split_0
I0131 21:15:45.415899 17125 net.cpp:358] conv2_1 -> conv2_1
I0131 21:15:45.415904 17125 net.cpp:98] Setting up conv2_1
I0131 21:15:45.416060 17125 net.cpp:105] Top shape: 1 128 161 241 (4966528)
I0131 21:15:45.416070 17125 layer_factory.hpp:78] Creating layer relu2_1
I0131 21:15:45.416074 17125 net.cpp:69] Creating Layer relu2_1
I0131 21:15:45.416079 17125 net.cpp:396] relu2_1 <- conv2_1
I0131 21:15:45.416084 17125 net.cpp:347] relu2_1 -> conv2_1 (in-place)
I0131 21:15:45.416088 17125 net.cpp:98] Setting up relu2_1
I0131 21:15:45.416091 17125 net.cpp:105] Top shape: 1 128 161 241 (4966528)
I0131 21:15:45.416095 17125 layer_factory.hpp:78] Creating layer conv2_1_relu2_1_0_split
I0131 21:15:45.416100 17125 net.cpp:69] Creating Layer conv2_1_relu2_1_0_split
I0131 21:15:45.416102 17125 net.cpp:396] conv2_1_relu2_1_0_split <- conv2_1
I0131 21:15:45.416106 17125 net.cpp:358] conv2_1_relu2_1_0_split -> conv2_1_relu2_1_0_split_0
I0131 21:15:45.416112 17125 net.cpp:358] conv2_1_relu2_1_0_split -> conv2_1_relu2_1_0_split_1
I0131 21:15:45.416117 17125 net.cpp:98] Setting up conv2_1_relu2_1_0_split
I0131 21:15:45.416121 17125 net.cpp:105] Top shape: 1 128 161 241 (4966528)
I0131 21:15:45.416124 17125 net.cpp:105] Top shape: 1 128 161 241 (4966528)
I0131 21:15:45.416128 17125 layer_factory.hpp:78] Creating layer conv2_2
I0131 21:15:45.416132 17125 net.cpp:69] Creating Layer conv2_2
I0131 21:15:45.416136 17125 net.cpp:396] conv2_2 <- conv2_1_relu2_1_0_split_0
I0131 21:15:45.416141 17125 net.cpp:358] conv2_2 -> conv2_2
I0131 21:15:45.416146 17125 net.cpp:98] Setting up conv2_2
I0131 21:15:45.416395 17125 net.cpp:105] Top shape: 1 128 161 241 (4966528)
I0131 21:15:45.416404 17125 layer_factory.hpp:78] Creating layer relu2_2
I0131 21:15:45.416409 17125 net.cpp:69] Creating Layer relu2_2
I0131 21:15:45.416411 17125 net.cpp:396] relu2_2 <- conv2_2
I0131 21:15:45.416416 17125 net.cpp:347] relu2_2 -> conv2_2 (in-place)
I0131 21:15:45.416421 17125 net.cpp:98] Setting up relu2_2
I0131 21:15:45.416425 17125 net.cpp:105] Top shape: 1 128 161 241 (4966528)
I0131 21:15:45.416429 17125 layer_factory.hpp:78] Creating layer conv2_2_relu2_2_0_split
I0131 21:15:45.416432 17125 net.cpp:69] Creating Layer conv2_2_relu2_2_0_split
I0131 21:15:45.416436 17125 net.cpp:396] conv2_2_relu2_2_0_split <- conv2_2
I0131 21:15:45.416440 17125 net.cpp:358] conv2_2_relu2_2_0_split -> conv2_2_relu2_2_0_split_0
I0131 21:15:45.416447 17125 net.cpp:358] conv2_2_relu2_2_0_split -> conv2_2_relu2_2_0_split_1
I0131 21:15:45.416452 17125 net.cpp:98] Setting up conv2_2_relu2_2_0_split
I0131 21:15:45.416456 17125 net.cpp:105] Top shape: 1 128 161 241 (4966528)
I0131 21:15:45.416460 17125 net.cpp:105] Top shape: 1 128 161 241 (4966528)
I0131 21:15:45.416463 17125 layer_factory.hpp:78] Creating layer pool2
I0131 21:15:45.416468 17125 net.cpp:69] Creating Layer pool2
I0131 21:15:45.416472 17125 net.cpp:396] pool2 <- conv2_2_relu2_2_0_split_0
I0131 21:15:45.416476 17125 net.cpp:358] pool2 -> pool2
I0131 21:15:45.416481 17125 net.cpp:98] Setting up pool2
I0131 21:15:45.416486 17125 net.cpp:105] Top shape: 1 128 81 121 (1254528)
I0131 21:15:45.416489 17125 layer_factory.hpp:78] Creating layer conv3_1
I0131 21:15:45.416494 17125 net.cpp:69] Creating Layer conv3_1
I0131 21:15:45.416497 17125 net.cpp:396] conv3_1 <- pool2
I0131 21:15:45.416502 17125 net.cpp:358] conv3_1 -> conv3_1
I0131 21:15:45.416507 17125 net.cpp:98] Setting up conv3_1
I0131 21:15:45.416904 17125 net.cpp:105] Top shape: 1 256 81 121 (2509056)
I0131 21:15:45.416914 17125 layer_factory.hpp:78] Creating layer relu3_1
I0131 21:15:45.416919 17125 net.cpp:69] Creating Layer relu3_1
I0131 21:15:45.416923 17125 net.cpp:396] relu3_1 <- conv3_1
I0131 21:15:45.416928 17125 net.cpp:347] relu3_1 -> conv3_1 (in-place)
I0131 21:15:45.416932 17125 net.cpp:98] Setting up relu3_1
I0131 21:15:45.416936 17125 net.cpp:105] Top shape: 1 256 81 121 (2509056)
I0131 21:15:45.416939 17125 layer_factory.hpp:78] Creating layer conv3_1_relu3_1_0_split
I0131 21:15:45.416944 17125 net.cpp:69] Creating Layer conv3_1_relu3_1_0_split
I0131 21:15:45.416947 17125 net.cpp:396] conv3_1_relu3_1_0_split <- conv3_1
I0131 21:15:45.416951 17125 net.cpp:358] conv3_1_relu3_1_0_split -> conv3_1_relu3_1_0_split_0
I0131 21:15:45.416957 17125 net.cpp:358] conv3_1_relu3_1_0_split -> conv3_1_relu3_1_0_split_1
I0131 21:15:45.416961 17125 net.cpp:98] Setting up conv3_1_relu3_1_0_split
I0131 21:15:45.416965 17125 net.cpp:105] Top shape: 1 256 81 121 (2509056)
I0131 21:15:45.416970 17125 net.cpp:105] Top shape: 1 256 81 121 (2509056)
I0131 21:15:45.416972 17125 layer_factory.hpp:78] Creating layer conv3_2
I0131 21:15:45.416976 17125 net.cpp:69] Creating Layer conv3_2
I0131 21:15:45.416980 17125 net.cpp:396] conv3_2 <- conv3_1_relu3_1_0_split_0
I0131 21:15:45.416985 17125 net.cpp:358] conv3_2 -> conv3_2
I0131 21:15:45.416990 17125 net.cpp:98] Setting up conv3_2
I0131 21:15:45.417750 17125 net.cpp:105] Top shape: 1 256 81 121 (2509056)
I0131 21:15:45.417762 17125 layer_factory.hpp:78] Creating layer conv3_2_conv3_2_0_split
I0131 21:15:45.417767 17125 net.cpp:69] Creating Layer conv3_2_conv3_2_0_split
I0131 21:15:45.417769 17125 net.cpp:396] conv3_2_conv3_2_0_split <- conv3_2
I0131 21:15:45.417775 17125 net.cpp:358] conv3_2_conv3_2_0_split -> conv3_2_conv3_2_0_split_0
I0131 21:15:45.417781 17125 net.cpp:358] conv3_2_conv3_2_0_split -> conv3_2_conv3_2_0_split_1
I0131 21:15:45.417786 17125 net.cpp:98] Setting up conv3_2_conv3_2_0_split
I0131 21:15:45.417790 17125 net.cpp:105] Top shape: 1 256 81 121 (2509056)
I0131 21:15:45.417793 17125 net.cpp:105] Top shape: 1 256 81 121 (2509056)
I0131 21:15:45.417796 17125 layer_factory.hpp:78] Creating layer conv3_3
I0131 21:15:45.417801 17125 net.cpp:69] Creating Layer conv3_3
I0131 21:15:45.417805 17125 net.cpp:396] conv3_3 <- conv3_2_conv3_2_0_split_0
I0131 21:15:45.417810 17125 net.cpp:358] conv3_3 -> conv3_3
I0131 21:15:45.417815 17125 net.cpp:98] Setting up conv3_3
I0131 21:15:45.418596 17125 net.cpp:105] Top shape: 1 256 81 121 (2509056)
I0131 21:15:45.418607 17125 layer_factory.hpp:78] Creating layer relu3_3
I0131 21:15:45.418612 17125 net.cpp:69] Creating Layer relu3_3
I0131 21:15:45.418617 17125 net.cpp:396] relu3_3 <- conv3_3
I0131 21:15:45.418622 17125 net.cpp:347] relu3_3 -> conv3_3 (in-place)
I0131 21:15:45.418627 17125 net.cpp:98] Setting up relu3_3
I0131 21:15:45.418630 17125 net.cpp:105] Top shape: 1 256 81 121 (2509056)
I0131 21:15:45.418633 17125 layer_factory.hpp:78] Creating layer score-conv3_1
I0131 21:15:45.418638 17125 net.cpp:69] Creating Layer score-conv3_1
I0131 21:15:45.418642 17125 net.cpp:396] score-conv3_1 <- conv3_1_relu3_1_0_split_1
I0131 21:15:45.418648 17125 net.cpp:358] score-conv3_1 -> score-conv3_1
I0131 21:15:45.418653 17125 net.cpp:98] Setting up score-conv3_1
I0131 21:15:45.418671 17125 net.cpp:105] Top shape: 1 2 81 121 (19602)
I0131 21:15:45.418678 17125 layer_factory.hpp:78] Creating layer score-conv3_2
I0131 21:15:45.418684 17125 net.cpp:69] Creating Layer score-conv3_2
I0131 21:15:45.418687 17125 net.cpp:396] score-conv3_2 <- conv3_2_conv3_2_0_split_1
I0131 21:15:45.418692 17125 net.cpp:358] score-conv3_2 -> score-conv3_2
I0131 21:15:45.418697 17125 net.cpp:98] Setting up score-conv3_2
I0131 21:15:45.418720 17125 net.cpp:105] Top shape: 1 2 81 121 (19602)
I0131 21:15:45.418728 17125 layer_factory.hpp:78] Creating layer score-conv3_3
I0131 21:15:45.418733 17125 net.cpp:69] Creating Layer score-conv3_3
I0131 21:15:45.418737 17125 net.cpp:396] score-conv3_3 <- conv3_3
I0131 21:15:45.418742 17125 net.cpp:358] score-conv3_3 -> score-conv3_3
I0131 21:15:45.418748 17125 net.cpp:98] Setting up score-conv3_3
I0131 21:15:45.418769 17125 net.cpp:105] Top shape: 1 2 81 121 (19602)
I0131 21:15:45.418776 17125 layer_factory.hpp:78] Creating layer fuse-conv3
I0131 21:15:45.418781 17125 net.cpp:69] Creating Layer fuse-conv3
I0131 21:15:45.418786 17125 net.cpp:396] fuse-conv3 <- score-conv3_1
I0131 21:15:45.418789 17125 net.cpp:396] fuse-conv3 <- score-conv3_2
I0131 21:15:45.418793 17125 net.cpp:396] fuse-conv3 <- score-conv3_3
I0131 21:15:45.418798 17125 net.cpp:358] fuse-conv3 -> score-conv3
I0131 21:15:45.418804 17125 net.cpp:98] Setting up fuse-conv3
I0131 21:15:45.418809 17125 net.cpp:105] Top shape: 1 2 81 121 (19602)
I0131 21:15:45.418812 17125 layer_factory.hpp:78] Creating layer upscore-conv3
I0131 21:15:45.418817 17125 net.cpp:69] Creating Layer upscore-conv3
I0131 21:15:45.418822 17125 net.cpp:396] upscore-conv3 <- score-conv3
I0131 21:15:45.418826 17125 net.cpp:358] upscore-conv3 -> upscore-conv3
I0131 21:15:45.418831 17125 net.cpp:98] Setting up upscore-conv3
I0131 21:15:45.418889 17125 net.cpp:105] Top shape: 1 2 164 244 (80032)
I0131 21:15:45.418896 17125 layer_factory.hpp:78] Creating layer crop-upscore-conv3
I0131 21:15:45.418901 17125 net.cpp:69] Creating Layer crop-upscore-conv3
I0131 21:15:45.418905 17125 net.cpp:396] crop-upscore-conv3 <- upscore-conv3
I0131 21:15:45.418910 17125 net.cpp:396] crop-upscore-conv3 <- pool1_pool1_0_split_1
I0131 21:15:45.418915 17125 net.cpp:358] crop-upscore-conv3 -> upscore-conv3c
I0131 21:15:45.418922 17125 net.cpp:98] Setting up crop-upscore-conv3
I0131 21:15:45.418951 17125 net.cpp:105] Top shape: 1 2 161 241 (77602)
I0131 21:15:45.418956 17125 layer_factory.hpp:78] Creating layer score-conv2_1
I0131 21:15:45.418962 17125 net.cpp:69] Creating Layer score-conv2_1
I0131 21:15:45.418965 17125 net.cpp:396] score-conv2_1 <- conv2_1_relu2_1_0_split_1
I0131 21:15:45.418970 17125 net.cpp:358] score-conv2_1 -> score-conv2_1
I0131 21:15:45.418979 17125 net.cpp:98] Setting up score-conv2_1
I0131 21:15:45.419039 17125 net.cpp:105] Top shape: 1 2 161 241 (77602)
I0131 21:15:45.419049 17125 layer_factory.hpp:78] Creating layer score-conv2_2
I0131 21:15:45.419054 17125 net.cpp:69] Creating Layer score-conv2_2
I0131 21:15:45.419057 17125 net.cpp:396] score-conv2_2 <- conv2_2_relu2_2_0_split_1
I0131 21:15:45.419064 17125 net.cpp:358] score-conv2_2 -> score-conv2_2
I0131 21:15:45.419069 17125 net.cpp:98] Setting up score-conv2_2
I0131 21:15:45.419126 17125 net.cpp:105] Top shape: 1 2 161 241 (77602)
I0131 21:15:45.419134 17125 layer_factory.hpp:78] Creating layer fuse-conv2,3
I0131 21:15:45.419143 17125 net.cpp:69] Creating Layer fuse-conv2,3
I0131 21:15:45.419148 17125 net.cpp:396] fuse-conv2,3 <- score-conv2_1
I0131 21:15:45.419153 17125 net.cpp:396] fuse-conv2,3 <- score-conv2_2
I0131 21:15:45.419157 17125 net.cpp:396] fuse-conv2,3 <- upscore-conv3c
I0131 21:15:45.419162 17125 net.cpp:358] fuse-conv2,3 -> score-conv2,3
I0131 21:15:45.419167 17125 net.cpp:98] Setting up fuse-conv2,3
I0131 21:15:45.419173 17125 net.cpp:105] Top shape: 1 2 161 241 (77602)
I0131 21:15:45.419175 17125 layer_factory.hpp:78] Creating layer upscore-conv2,3
I0131 21:15:45.419181 17125 net.cpp:69] Creating Layer upscore-conv2,3
I0131 21:15:45.419185 17125 net.cpp:396] upscore-conv2,3 <- score-conv2,3
I0131 21:15:45.419190 17125 net.cpp:358] upscore-conv2,3 -> upscore-conv2,3
I0131 21:15:45.419196 17125 net.cpp:98] Setting up upscore-conv2,3
I0131 21:15:45.419401 17125 net.cpp:105] Top shape: 1 2 324 484 (313632)
I0131 21:15:45.419410 17125 layer_factory.hpp:78] Creating layer crop-upscore-conv2,3
I0131 21:15:45.419415 17125 net.cpp:69] Creating Layer crop-upscore-conv2,3
I0131 21:15:45.419419 17125 net.cpp:396] crop-upscore-conv2,3 <- upscore-conv2,3
I0131 21:15:45.419423 17125 net.cpp:396] crop-upscore-conv2,3 <- conv1_1_relu1_1_0_split_1
I0131 21:15:45.419428 17125 net.cpp:358] crop-upscore-conv2,3 -> upscore-conv2,3c
I0131 21:15:45.419433 17125 net.cpp:98] Setting up crop-upscore-conv2,3
I0131 21:15:45.419459 17125 net.cpp:105] Top shape: 1 2 321 481 (308802)
I0131 21:15:45.419464 17125 layer_factory.hpp:78] Creating layer score-conv1_1
I0131 21:15:45.419469 17125 net.cpp:69] Creating Layer score-conv1_1
I0131 21:15:45.419473 17125 net.cpp:396] score-conv1_1 <- conv1_1_relu1_1_0_split_2
I0131 21:15:45.419478 17125 net.cpp:358] score-conv1_1 -> score-conv1_1
I0131 21:15:45.419483 17125 net.cpp:98] Setting up score-conv1_1
I0131 21:15:45.419687 17125 net.cpp:105] Top shape: 1 2 321 481 (308802)
I0131 21:15:45.419695 17125 layer_factory.hpp:78] Creating layer score-conv1_2
I0131 21:15:45.419700 17125 net.cpp:69] Creating Layer score-conv1_2
I0131 21:15:45.419703 17125 net.cpp:396] score-conv1_2 <- conv1_2_relu1_2_0_split_1
I0131 21:15:45.419709 17125 net.cpp:358] score-conv1_2 -> score-conv1_2
I0131 21:15:45.419714 17125 net.cpp:98] Setting up score-conv1_2
I0131 21:15:45.419916 17125 net.cpp:105] Top shape: 1 2 321 481 (308802)
I0131 21:15:45.419924 17125 layer_factory.hpp:78] Creating layer fuse-conv1,2,3
I0131 21:15:45.419930 17125 net.cpp:69] Creating Layer fuse-conv1,2,3
I0131 21:15:45.419934 17125 net.cpp:396] fuse-conv1,2,3 <- score-conv1_1
I0131 21:15:45.419939 17125 net.cpp:396] fuse-conv1,2,3 <- score-conv1_2
I0131 21:15:45.419942 17125 net.cpp:396] fuse-conv1,2,3 <- upscore-conv2,3c
I0131 21:15:45.419950 17125 net.cpp:358] fuse-conv1,2,3 -> score
I0131 21:15:45.419955 17125 net.cpp:98] Setting up fuse-conv1,2,3
I0131 21:15:45.419960 17125 net.cpp:105] Top shape: 1 2 321 481 (308802)
I0131 21:15:45.419963 17125 layer_factory.hpp:78] Creating layer score_fuse-conv1,2,3_0_split
I0131 21:15:45.419968 17125 net.cpp:69] Creating Layer score_fuse-conv1,2,3_0_split
I0131 21:15:45.419971 17125 net.cpp:396] score_fuse-conv1,2,3_0_split <- score
I0131 21:15:45.419976 17125 net.cpp:358] score_fuse-conv1,2,3_0_split -> score_fuse-conv1,2,3_0_split_0
I0131 21:15:45.419981 17125 net.cpp:358] score_fuse-conv1,2,3_0_split -> score_fuse-conv1,2,3_0_split_1
I0131 21:15:45.419986 17125 net.cpp:98] Setting up score_fuse-conv1,2,3_0_split
I0131 21:15:45.419991 17125 net.cpp:105] Top shape: 1 2 321 481 (308802)
I0131 21:15:45.419993 17125 net.cpp:105] Top shape: 1 2 321 481 (308802)
I0131 21:15:45.419997 17125 layer_factory.hpp:78] Creating layer loss
I0131 21:15:45.420003 17125 net.cpp:69] Creating Layer loss
I0131 21:15:45.420007 17125 net.cpp:396] loss <- score_fuse-conv1,2,3_0_split_0
I0131 21:15:45.420011 17125 net.cpp:396] loss <- label
I0131 21:15:45.420017 17125 net.cpp:358] loss -> loss
I0131 21:15:45.420022 17125 net.cpp:98] Setting up loss
I0131 21:15:45.420027 17125 layer_factory.hpp:78] Creating layer loss
I0131 21:15:45.420426 17125 net.cpp:105] Top shape: 1 1 1 1 (1)
I0131 21:15:45.420433 17125 net.cpp:111]     with loss weight 1
I0131 21:15:45.420442 17125 layer_factory.hpp:78] Creating layer prob
I0131 21:15:45.420449 17125 net.cpp:69] Creating Layer prob
I0131 21:15:45.420452 17125 net.cpp:396] prob <- score_fuse-conv1,2,3_0_split_1
I0131 21:15:45.420457 17125 net.cpp:358] prob -> prob
I0131 21:15:45.420464 17125 net.cpp:98] Setting up prob
I0131 21:15:45.420467 17125 net.cpp:105] Top shape: 1 2 321 481 (308802)
I0131 21:15:45.420471 17125 layer_factory.hpp:78] Creating layer silence
I0131 21:15:45.420475 17125 net.cpp:69] Creating Layer silence
I0131 21:15:45.420480 17125 net.cpp:396] silence <- prob
I0131 21:15:45.420483 17125 net.cpp:98] Setting up silence
I0131 21:15:45.420488 17125 net.cpp:174] silence does not need backward computation.
I0131 21:15:45.420492 17125 net.cpp:174] prob does not need backward computation.
…
